node {
  name: "Const"
  op: "Const"
  attr {
    key: "_output_shapes"
    value {
      list {
        shape {
          dim {
            size: 12
          }
        }
      }
    }
  }
  attr {
    key: "dtype"
    value {
      type: DT_FLOAT
    }
  }
  attr {
    key: "value"
    value {
      tensor {
        dtype: DT_FLOAT
        tensor_shape {
          dim {
            size: 12
          }
        }
        tensor_content: "…"
      }
    }
  }
}
node {
  name: "Reshape/shape"
  op: "Const"
  attr {
    key: "_output_shapes"
    value {
      list {
        shape {
          dim {
            size: 1
          }
        }
      }
    }
  }
  attr {
    key: "dtype"
    value {
      type: DT_INT32
    }
  }
  attr {
    key: "value"
    value {
      tensor {
        dtype: DT_INT32
        tensor_shape {
          dim {
            size: 1
          }
        }
        int_val: 12
      }
    }
  }
}
node {
  name: "Reshape"
  op: "Reshape"
  input: "Const"
  input: "Reshape/shape"
  attr {
    key: "T"
    value {
      type: DT_FLOAT
    }
  }
  attr {
    key: "Tshape"
    value {
      type: DT_INT32
    }
  }
  attr {
    key: "_output_shapes"
    value {
      list {
        shape {
          dim {
            size: 12
          }
        }
      }
    }
  }
}
node {
  name: "Placeholder"
  op: "Placeholder"
  attr {
    key: "_output_shapes"
    value {
      list {
        shape {
          dim {
            size: -1
          }
          dim {
            size: 300
          }
          dim {
            size: 300
          }
          dim {
            size: 3
          }
        }
      }
    }
  }
  attr {
    key: "dtype"
    value {
      type: DT_FLOAT
    }
  }
  attr {
    key: "shape"
    value {
      shape {
        dim {
          size: -1
        }
        dim {
          size: 300
        }
        dim {
          size: 300
        }
        dim {
          size: 3
        }
      }
    }
  }
}
node {
  name: "Placeholder_1"
  op: "Placeholder"
  attr {
    key: "_output_shapes"
    value {
      list {
        shape {
          dim {
            size: -1
          }
          dim {
            size: 90000
          }
          dim {
            size: 12
          }
        }
      }
    }
  }
  attr {
    key: "dtype"
    value {
      type: DT_FLOAT
    }
  }
  attr {
    key: "shape"
    value {
      shape {
        dim {
          size: -1
        }
        dim {
          size: 90000
        }
        dim {
          size: 12
        }
      }
    }
  }
}
node {
  name: "First_conv/Conv/weights/Initializer/random_uniform/shape"
  op: "Const"
  attr {
    key: "_class"
    value {
      list {
        s: "loc:@First_conv/Conv/weights"
      }
    }
  }
  attr {
    key: "_output_shapes"
    value {
      list {
        shape {
          dim {
            size: 4
          }
        }
      }
    }
  }
  attr {
    key: "dtype"
    value {
      type: DT_INT32
    }
  }
  attr {
    key: "value"
    value {
      tensor {
        dtype: DT_INT32
        tensor_shape {
          dim {
            size: 4
          }
        }
        tensor_content: "\003\000\000\000\003\000\000\000\003\000\000\000 \000\000\000"
      }
    }
  }
}
node {
  name: "First_conv/Conv/weights/Initializer/random_uniform/min"
  op: "Const"
  attr {
    key: "_class"
    value {
      list {
        s: "loc:@First_conv/Conv/weights"
      }
    }
  }
  attr {
    key: "_output_shapes"
    value {
      list {
        shape {
        }
      }
    }
  }
  attr {
    key: "dtype"
    value {
      type: DT_FLOAT
    }
  }
  attr {
    key: "value"
    value {
      tensor {
        dtype: DT_FLOAT
        tensor_shape {
        }
        float_val: -0.1380131095647812
      }
    }
  }
}
node {
  name: "First_conv/Conv/weights/Initializer/random_uniform/max"
  op: "Const"
  attr {
    key: "_class"
    value {
      list {
        s: "loc:@First_conv/Conv/weights"
      }
    }
  }
  attr {
    key: "_output_shapes"
    value {
      list {
        shape {
        }
      }
    }
  }
  attr {
    key: "dtype"
    value {
      type: DT_FLOAT
    }
  }
  attr {
    key: "value"
    value {
      tensor {
        dtype: DT_FLOAT
        tensor_shape {
        }
        float_val: 0.1380131095647812
      }
    }
  }
}
node {
  name: "First_conv/Conv/weights/Initializer/random_uniform/RandomUniform"
  op: "RandomUniform"
  input: "First_conv/Conv/weights/Initializer/random_uniform/shape"
  attr {
    key: "T"
    value {
      type: DT_INT32
    }
  }
  attr {
    key: "_class"
    value {
      list {
        s: "loc:@First_conv/Conv/weights"
      }
    }
  }
  attr {
    key: "_output_shapes"
    value {
      list {
        shape {
          dim {
            size: 3
          }
          dim {
            size: 3
          }
          dim {
            size: 3
          }
          dim {
            size: 32
          }
        }
      }
    }
  }
  attr {
    key: "dtype"
    value {
      type: DT_FLOAT
    }
  }
  attr {
    key: "seed"
    value {
      i: 0
    }
  }
  attr {
    key: "seed2"
    value {
      i: 0
    }
  }
}
node {
  name: "First_conv/Conv/weights/Initializer/random_uniform/sub"
  op: "Sub"
  input: "First_conv/Conv/weights/Initializer/random_uniform/max"
  input: "First_conv/Conv/weights/Initializer/random_uniform/min"
  attr {
    key: "T"
    value {
      type: DT_FLOAT
    }
  }
  attr {
    key: "_class"
    value {
      list {
        s: "loc:@First_conv/Conv/weights"
      }
    }
  }
  attr {
    key: "_output_shapes"
    value {
      list {
        shape {
        }
      }
    }
  }
}
node {
  name: "First_conv/Conv/weights/Initializer/random_uniform/mul"
  op: "Mul"
  input: "First_conv/Conv/weights/Initializer/random_uniform/RandomUniform"
  input: "First_conv/Conv/weights/Initializer/random_uniform/sub"
  attr {
    key: "T"
    value {
      type: DT_FLOAT
    }
  }
  attr {
    key: "_class"
    value {
      list {
        s: "loc:@First_conv/Conv/weights"
      }
    }
  }
  attr {
    key: "_output_shapes"
    value {
      list {
        shape {
          dim {
            size: 3
          }
          dim {
            size: 3
          }
          dim {
            size: 3
          }
          dim {
            size: 32
          }
        }
      }
    }
  }
}
node {
  name: "First_conv/Conv/weights/Initializer/random_uniform"
  op: "Add"
  input: "First_conv/Conv/weights/Initializer/random_uniform/mul"
  input: "First_conv/Conv/weights/Initializer/random_uniform/min"
  attr {
    key: "T"
    value {
      type: DT_FLOAT
    }
  }
  attr {
    key: "_class"
    value {
      list {
        s: "loc:@First_conv/Conv/weights"
      }
    }
  }
  attr {
    key: "_output_shapes"
    value {
      list {
        shape {
          dim {
            size: 3
          }
          dim {
            size: 3
          }
          dim {
            size: 3
          }
          dim {
            size: 32
          }
        }
      }
    }
  }
}
node {
  name: "First_conv/Conv/weights"
  op: "VariableV2"
  attr {
    key: "_class"
    value {
      list {
        s: "loc:@First_conv/Conv/weights"
      }
    }
  }
  attr {
    key: "_output_shapes"
    value {
      list {
        shape {
          dim {
            size: 3
          }
          dim {
            size: 3
          }
          dim {
            size: 3
          }
          dim {
            size: 32
          }
        }
      }
    }
  }
  attr {
    key: "container"
    value {
      s: ""
    }
  }
  attr {
    key: "dtype"
    value {
      type: DT_FLOAT
    }
  }
  attr {
    key: "shape"
    value {
      shape {
        dim {
          size: 3
        }
        dim {
          size: 3
        }
        dim {
          size: 3
        }
        dim {
          size: 32
        }
      }
    }
  }
  attr {
    key: "shared_name"
    value {
      s: ""
    }
  }
}
node {
  name: "First_conv/Conv/weights/Assign"
  op: "Assign"
  input: "First_conv/Conv/weights"
  input: "First_conv/Conv/weights/Initializer/random_uniform"
  attr {
    key: "T"
    value {
      type: DT_FLOAT
    }
  }
  attr {
    key: "_class"
    value {
      list {
        s: "loc:@First_conv/Conv/weights"
      }
    }
  }
  attr {
    key: "_output_shapes"
    value {
      list {
        shape {
          dim {
            size: 3
          }
          dim {
            size: 3
          }
          dim {
            size: 3
          }
          dim {
            size: 32
          }
        }
      }
    }
  }
  attr {
    key: "use_locking"
    value {
      b: true
    }
  }
  attr {
    key: "validate_shape"
    value {
      b: true
    }
  }
}
node {
  name: "First_conv/Conv/weights/read"
  op: "Identity"
  input: "First_conv/Conv/weights"
  attr {
    key: "T"
    value {
      type: DT_FLOAT
    }
  }
  attr {
    key: "_class"
    value {
      list {
        s: "loc:@First_conv/Conv/weights"
      }
    }
  }
  attr {
    key: "_output_shapes"
    value {
      list {
        shape {
          dim {
            size: 3
          }
          dim {
            size: 3
          }
          dim {
            size: 3
          }
          dim {
            size: 32
          }
        }
      }
    }
  }
}
node {
  name: "Net_prediction/First_conv/Conv/convolution/Shape"
  op: "Const"
  attr {
    key: "_output_shapes"
    value {
      list {
        shape {
          dim {
            size: 4
          }
        }
      }
    }
  }
  attr {
    key: "dtype"
    value {
      type: DT_INT32
    }
  }
  attr {
    key: "value"
    value {
      tensor {
        dtype: DT_INT32
        tensor_shape {
          dim {
            size: 4
          }
        }
        tensor_content: "\003\000\000\000\003\000\000\000\003\000\000\000 \000\000\000"
      }
    }
  }
}
node {
  name: "Net_prediction/First_conv/Conv/convolution/dilation_rate"
  op: "Const"
  attr {
    key: "_output_shapes"
    value {
      list {
        shape {
          dim {
            size: 2
          }
        }
      }
    }
  }
  attr {
    key: "dtype"
    value {
      type: DT_INT32
    }
  }
  attr {
    key: "value"
    value {
      tensor {
        dtype: DT_INT32
        tensor_shape {
          dim {
            size: 2
          }
        }
        tensor_content: "\001\000\000\000\001\000\000\000"
      }
    }
  }
}
node {
  name: "Net_prediction/First_conv/Conv/convolution"
  op: "Conv2D"
  input: "Placeholder"
  input: "First_conv/Conv/weights/read"
  attr {
    key: "T"
    value {
      type: DT_FLOAT
    }
  }
  attr {
    key: "_output_shapes"
    value {
      list {
        shape {
          dim {
            size: -1
          }
          dim {
            size: 300
          }
          dim {
            size: 300
          }
          dim {
            size: 32
          }
        }
      }
    }
  }
  attr {
    key: "data_format"
    value {
      s: "NHWC"
    }
  }
  attr {
    key: "padding"
    value {
      s: "SAME"
    }
  }
  attr {
    key: "strides"
    value {
      list {
        i: 1
        i: 1
        i: 1
        i: 1
      }
    }
  }
  attr {
    key: "use_cudnn_on_gpu"
    value {
      b: true
    }
  }
}
node {
  name: "First_conv/Conv/BatchNorm/beta/Initializer/zeros"
  op: "Const"
  attr {
    key: "_class"
    value {
      list {
        s: "loc:@First_conv/Conv/BatchNorm/beta"
      }
    }
  }
  attr {
    key: "_output_shapes"
    value {
      list {
        shape {
          dim {
            size: 32
          }
        }
      }
    }
  }
  attr {
    key: "dtype"
    value {
      type: DT_FLOAT
    }
  }
  attr {
    key: "value"
    value {
      tensor {
        dtype: DT_FLOAT
        tensor_shape {
          dim {
            size: 32
          }
        }
        float_val: 0.0
      }
    }
  }
}
node {
  name: "First_conv/Conv/BatchNorm/beta"
  op: "VariableV2"
  attr {
    key: "_class"
    value {
      list {
        s: "loc:@First_conv/Conv/BatchNorm/beta"
      }
    }
  }
  attr {
    key: "_output_shapes"
    value {
      list {
        shape {
          dim {
            size: 32
          }
        }
      }
    }
  }
  attr {
    key: "container"
    value {
      s: ""
    }
  }
  attr {
    key: "dtype"
    value {
      type: DT_FLOAT
    }
  }
  attr {
    key: "shape"
    value {
      shape {
        dim {
          size: 32
        }
      }
    }
  }
  attr {
    key: "shared_name"
    value {
      s: ""
    }
  }
}
node {
  name: "First_conv/Conv/BatchNorm/beta/Assign"
  op: "Assign"
  input: "First_conv/Conv/BatchNorm/beta"
  input: "First_conv/Conv/BatchNorm/beta/Initializer/zeros"
  attr {
    key: "T"
    value {
      type: DT_FLOAT
    }
  }
  attr {
    key: "_class"
    value {
      list {
        s: "loc:@First_conv/Conv/BatchNorm/beta"
      }
    }
  }
  attr {
    key: "_output_shapes"
    value {
      list {
        shape {
          dim {
            size: 32
          }
        }
      }
    }
  }
  attr {
    key: "use_locking"
    value {
      b: true
    }
  }
  attr {
    key: "validate_shape"
    value {
      b: true
    }
  }
}
node {
  name: "First_conv/Conv/BatchNorm/beta/read"
  op: "Identity"
  input: "First_conv/Conv/BatchNorm/beta"
  attr {
    key: "T"
    value {
      type: DT_FLOAT
    }
  }
  attr {
    key: "_class"
    value {
      list {
        s: "loc:@First_conv/Conv/BatchNorm/beta"
      }
    }
  }
  attr {
    key: "_output_shapes"
    value {
      list {
        shape {
          dim {
            size: 32
          }
        }
      }
    }
  }
}
node {
  name: "First_conv/Conv/BatchNorm/moving_mean/Initializer/zeros"
  op: "Const"
  attr {
    key: "_class"
    value {
      list {
        s: "loc:@First_conv/Conv/BatchNorm/moving_mean"
      }
    }
  }
  attr {
    key: "_output_shapes"
    value {
      list {
        shape {
          dim {
            size: 32
          }
        }
      }
    }
  }
  attr {
    key: "dtype"
    value {
      type: DT_FLOAT
    }
  }
  attr {
    key: "value"
    value {
      tensor {
        dtype: DT_FLOAT
        tensor_shape {
          dim {
            size: 32
          }
        }
        float_val: 0.0
      }
    }
  }
}
node {
  name: "First_conv/Conv/BatchNorm/moving_mean"
  op: "VariableV2"
  attr {
    key: "_class"
    value {
      list {
        s: "loc:@First_conv/Conv/BatchNorm/moving_mean"
      }
    }
  }
  attr {
    key: "_output_shapes"
    value {
      list {
        shape {
          dim {
            size: 32
          }
        }
      }
    }
  }
  attr {
    key: "container"
    value {
      s: ""
    }
  }
  attr {
    key: "dtype"
    value {
      type: DT_FLOAT
    }
  }
  attr {
    key: "shape"
    value {
      shape {
        dim {
          size: 32
        }
      }
    }
  }
  attr {
    key: "shared_name"
    value {
      s: ""
    }
  }
}
node {
  name: "First_conv/Conv/BatchNorm/moving_mean/Assign"
  op: "Assign"
  input: "First_conv/Conv/BatchNorm/moving_mean"
  input: "First_conv/Conv/BatchNorm/moving_mean/Initializer/zeros"
  attr {
    key: "T"
    value {
      type: DT_FLOAT
    }
  }
  attr {
    key: "_class"
    value {
      list {
        s: "loc:@First_conv/Conv/BatchNorm/moving_mean"
      }
    }
  }
  attr {
    key: "_output_shapes"
    value {
      list {
        shape {
          dim {
            size: 32
          }
        }
      }
    }
  }
  attr {
    key: "use_locking"
    value {
      b: true
    }
  }
  attr {
    key: "validate_shape"
    value {
      b: true
    }
  }
}
node {
  name: "First_conv/Conv/BatchNorm/moving_mean/read"
  op: "Identity"
  input: "First_conv/Conv/BatchNorm/moving_mean"
  attr {
    key: "T"
    value {
      type: DT_FLOAT
    }
  }
  attr {
    key: "_class"
    value {
      list {
        s: "loc:@First_conv/Conv/BatchNorm/moving_mean"
      }
    }
  }
  attr {
    key: "_output_shapes"
    value {
      list {
        shape {
          dim {
            size: 32
          }
        }
      }
    }
  }
}
node {
  name: "First_conv/Conv/BatchNorm/moving_variance/Initializer/ones"
  op: "Const"
  attr {
    key: "_class"
    value {
      list {
        s: "loc:@First_conv/Conv/BatchNorm/moving_variance"
      }
    }
  }
  attr {
    key: "_output_shapes"
    value {
      list {
        shape {
          dim {
            size: 32
          }
        }
      }
    }
  }
  attr {
    key: "dtype"
    value {
      type: DT_FLOAT
    }
  }
  attr {
    key: "value"
    value {
      tensor {
        dtype: DT_FLOAT
        tensor_shape {
          dim {
            size: 32
          }
        }
        float_val: 1.0
      }
    }
  }
}
node {
  name: "First_conv/Conv/BatchNorm/moving_variance"
  op: "VariableV2"
  attr {
    key: "_class"
    value {
      list {
        s: "loc:@First_conv/Conv/BatchNorm/moving_variance"
      }
    }
  }
  attr {
    key: "_output_shapes"
    value {
      list {
        shape {
          dim {
            size: 32
          }
        }
      }
    }
  }
  attr {
    key: "container"
    value {
      s: ""
    }
  }
  attr {
    key: "dtype"
    value {
      type: DT_FLOAT
    }
  }
  attr {
    key: "shape"
    value {
      shape {
        dim {
          size: 32
        }
      }
    }
  }
  attr {
    key: "shared_name"
    value {
      s: ""
    }
  }
}
node {
  name: "First_conv/Conv/BatchNorm/moving_variance/Assign"
  op: "Assign"
  input: "First_conv/Conv/BatchNorm/moving_variance"
  input: "First_conv/Conv/BatchNorm/moving_variance/Initializer/ones"
  attr {
    key: "T"
    value {
      type: DT_FLOAT
    }
  }
  attr {
    key: "_class"
    value {
      list {
        s: "loc:@First_conv/Conv/BatchNorm/moving_variance"
      }
    }
  }
  attr {
    key: "_output_shapes"
    value {
      list {
        shape {
          dim {
            size: 32
          }
        }
      }
    }
  }
  attr {
    key: "use_locking"
    value {
      b: true
    }
  }
  attr {
    key: "validate_shape"
    value {
      b: true
    }
  }
}
node {
  name: "First_conv/Conv/BatchNorm/moving_variance/read"
  op: "Identity"
  input: "First_conv/Conv/BatchNorm/moving_variance"
  attr {
    key: "T"
    value {
      type: DT_FLOAT
    }
  }
  attr {
    key: "_class"
    value {
      list {
        s: "loc:@First_conv/Conv/BatchNorm/moving_variance"
      }
    }
  }
  attr {
    key: "_output_shapes"
    value {
      list {
        shape {
          dim {
            size: 32
          }
        }
      }
    }
  }
}
node {
  name: "Net_prediction/First_conv/Conv/BatchNorm/moments/mean/reduction_indices"
  op: "Const"
  attr {
    key: "_output_shapes"
    value {
      list {
        shape {
          dim {
            size: 3
          }
        }
      }
    }
  }
  attr {
    key: "dtype"
    value {
      type: DT_INT32
    }
  }
  attr {
    key: "value"
    value {
      tensor {
        dtype: DT_INT32
        tensor_shape {
          dim {
            size: 3
          }
        }
        tensor_content: "\000\000\000\000\001\000\000\000\002\000\000\000"
      }
    }
  }
}
node {
  name: "Net_prediction/First_conv/Conv/BatchNorm/moments/mean"
  op: "Mean"
  input: "Net_prediction/First_conv/Conv/convolution"
  input: "Net_prediction/First_conv/Conv/BatchNorm/moments/mean/reduction_indices"
  attr {
    key: "T"
    value {
      type: DT_FLOAT
    }
  }
  attr {
    key: "Tidx"
    value {
      type: DT_INT32
    }
  }
  attr {
    key: "_output_shapes"
    value {
      list {
        shape {
          dim {
            size: 1
          }
          dim {
            size: 1
          }
          dim {
            size: 1
          }
          dim {
            size: 32
          }
        }
      }
    }
  }
  attr {
    key: "keep_dims"
    value {
      b: true
    }
  }
}
node {
  name: "Net_prediction/First_conv/Conv/BatchNorm/moments/StopGradient"
  op: "StopGradient"
  input: "Net_prediction/First_conv/Conv/BatchNorm/moments/mean"
  attr {
    key: "T"
    value {
      type: DT_FLOAT
    }
  }
  attr {
    key: "_output_shapes"
    value {
      list {
        shape {
          dim {
            size: 1
          }
          dim {
            size: 1
          }
          dim {
            size: 1
          }
          dim {
            size: 32
          }
        }
      }
    }
  }
}
node {
  name: "Net_prediction/First_conv/Conv/BatchNorm/moments/SquaredDifference"
  op: "SquaredDifference"
  input: "Net_prediction/First_conv/Conv/convolution"
  input: "Net_prediction/First_conv/Conv/BatchNorm/moments/StopGradient"
  attr {
    key: "T"
    value {
      type: DT_FLOAT
    }
  }
  attr {
    key: "_output_shapes"
    value {
      list {
        shape {
          dim {
            size: -1
          }
          dim {
            size: 300
          }
          dim {
            size: 300
          }
          dim {
            size: 32
          }
        }
      }
    }
  }
}
node {
  name: "Net_prediction/First_conv/Conv/BatchNorm/moments/variance/reduction_indices"
  op: "Const"
  attr {
    key: "_output_shapes"
    value {
      list {
        shape {
          dim {
            size: 3
          }
        }
      }
    }
  }
  attr {
    key: "dtype"
    value {
      type: DT_INT32
    }
  }
  attr {
    key: "value"
    value {
      tensor {
        dtype: DT_INT32
        tensor_shape {
          dim {
            size: 3
          }
        }
        tensor_content: "\000\000\000\000\001\000\000\000\002\000\000\000"
      }
    }
  }
}
node {
  name: "Net_prediction/First_conv/Conv/BatchNorm/moments/variance"
  op: "Mean"
  input: "Net_prediction/First_conv/Conv/BatchNorm/moments/SquaredDifference"
  input: "Net_prediction/First_conv/Conv/BatchNorm/moments/variance/reduction_indices"
  attr {
    key: "T"
    value {
      type: DT_FLOAT
    }
  }
  attr {
    key: "Tidx"
    value {
      type: DT_INT32
    }
  }
  attr {
    key: "_output_shapes"
    value {
      list {
        shape {
          dim {
            size: 1
          }
          dim {
            size: 1
          }
          dim {
            size: 1
          }
          dim {
            size: 32
          }
        }
      }
    }
  }
  attr {
    key: "keep_dims"
    value {
      b: true
    }
  }
}
node {
  name: "Net_prediction/First_conv/Conv/BatchNorm/moments/Squeeze"
  op: "Squeeze"
  input: "Net_prediction/First_conv/Conv/BatchNorm/moments/mean"
  attr {
    key: "T"
    value {
      type: DT_FLOAT
    }
  }
  attr {
    key: "_output_shapes"
    value {
      list {
        shape {
          dim {
            size: 32
          }
        }
      }
    }
  }
  attr {
    key: "squeeze_dims"
    value {
      list {
        i: 0
        i: 1
        i: 2
      }
    }
  }
}
node {
  name: "Net_prediction/First_conv/Conv/BatchNorm/moments/Squeeze_1"
  op: "Squeeze"
  input: "Net_prediction/First_conv/Conv/BatchNorm/moments/variance"
  attr {
    key: "T"
    value {
      type: DT_FLOAT
    }
  }
  attr {
    key: "_output_shapes"
    value {
      list {
        shape {
          dim {
            size: 32
          }
        }
      }
    }
  }
  attr {
    key: "squeeze_dims"
    value {
      list {
        i: 0
        i: 1
        i: 2
      }
    }
  }
}
node {
  name: "Net_prediction/First_conv/Conv/BatchNorm/AssignMovingAvg/decay"
  op: "Const"
  attr {
    key: "_class"
    value {
      list {
        s: "loc:@First_conv/Conv/BatchNorm/moving_mean"
      }
    }
  }
  attr {
    key: "_output_shapes"
    value {
      list {
        shape {
        }
      }
    }
  }
  attr {
    key: "dtype"
    value {
      type: DT_FLOAT
    }
  }
  attr {
    key: "value"
    value {
      tensor {
        dtype: DT_FLOAT
        tensor_shape {
        }
        float_val: 0.0010000000474974513
      }
    }
  }
}
node {
  name: "Net_prediction/First_conv/Conv/BatchNorm/AssignMovingAvg/sub"
  op: "Sub"
  input: "First_conv/Conv/BatchNorm/moving_mean/read"
  input: "Net_prediction/First_conv/Conv/BatchNorm/moments/Squeeze"
  attr {
    key: "T"
    value {
      type: DT_FLOAT
    }
  }
  attr {
    key: "_class"
    value {
      list {
        s: "loc:@First_conv/Conv/BatchNorm/moving_mean"
      }
    }
  }
  attr {
    key: "_output_shapes"
    value {
      list {
        shape {
          dim {
            size: 32
          }
        }
      }
    }
  }
}
node {
  name: "Net_prediction/First_conv/Conv/BatchNorm/AssignMovingAvg/mul"
  op: "Mul"
  input: "Net_prediction/First_conv/Conv/BatchNorm/AssignMovingAvg/sub"
  input: "Net_prediction/First_conv/Conv/BatchNorm/AssignMovingAvg/decay"
  attr {
    key: "T"
    value {
      type: DT_FLOAT
    }
  }
  attr {
    key: "_class"
    value {
      list {
        s: "loc:@First_conv/Conv/BatchNorm/moving_mean"
      }
    }
  }
  attr {
    key: "_output_shapes"
    value {
      list {
        shape {
          dim {
            size: 32
          }
        }
      }
    }
  }
}
node {
  name: "Net_prediction/First_conv/Conv/BatchNorm/AssignMovingAvg"
  op: "AssignSub"
  input: "First_conv/Conv/BatchNorm/moving_mean"
  input: "Net_prediction/First_conv/Conv/BatchNorm/AssignMovingAvg/mul"
  attr {
    key: "T"
    value {
      type: DT_FLOAT
    }
  }
  attr {
    key: "_class"
    value {
      list {
        s: "loc:@First_conv/Conv/BatchNorm/moving_mean"
      }
    }
  }
  attr {
    key: "_output_shapes"
    value {
      list {
        shape {
          dim {
            size: 32
          }
        }
      }
    }
  }
  attr {
    key: "use_locking"
    value {
      b: false
    }
  }
}
node {
  name: "Net_prediction/First_conv/Conv/BatchNorm/AssignMovingAvg_1/decay"
  op: "Const"
  attr {
    key: "_class"
    value {
      list {
        s: "loc:@First_conv/Conv/BatchNorm/moving_variance"
      }
    }
  }
  attr {
    key: "_output_shapes"
    value {
      list {
        shape {
        }
      }
    }
  }
  attr {
    key: "dtype"
    value {
      type: DT_FLOAT
    }
  }
  attr {
    key: "value"
    value {
      tensor {
        dtype: DT_FLOAT
        tensor_shape {
        }
        float_val: 0.0010000000474974513
      }
    }
  }
}
node {
  name: "Net_prediction/First_conv/Conv/BatchNorm/AssignMovingAvg_1/sub"
  op: "Sub"
  input: "First_conv/Conv/BatchNorm/moving_variance/read"
  input: "Net_prediction/First_conv/Conv/BatchNorm/moments/Squeeze_1"
  attr {
    key: "T"
    value {
      type: DT_FLOAT
    }
  }
  attr {
    key: "_class"
    value {
      list {
        s: "loc:@First_conv/Conv/BatchNorm/moving_variance"
      }
    }
  }
  attr {
    key: "_output_shapes"
    value {
      list {
        shape {
          dim {
            size: 32
          }
        }
      }
    }
  }
}
node {
  name: "Net_prediction/First_conv/Conv/BatchNorm/AssignMovingAvg_1/mul"
  op: "Mul"
  input: "Net_prediction/First_conv/Conv/BatchNorm/AssignMovingAvg_1/sub"
  input: "Net_prediction/First_conv/Conv/BatchNorm/AssignMovingAvg_1/decay"
  attr {
    key: "T"
    value {
      type: DT_FLOAT
    }
  }
  attr {
    key: "_class"
    value {
      list {
        s: "loc:@First_conv/Conv/BatchNorm/moving_variance"
      }
    }
  }
  attr {
    key: "_output_shapes"
    value {
      list {
        shape {
          dim {
            size: 32
          }
        }
      }
    }
  }
}
node {
  name: "Net_prediction/First_conv/Conv/BatchNorm/AssignMovingAvg_1"
  op: "AssignSub"
  input: "First_conv/Conv/BatchNorm/moving_variance"
  input: "Net_prediction/First_conv/Conv/BatchNorm/AssignMovingAvg_1/mul"
  attr {
    key: "T"
    value {
      type: DT_FLOAT
    }
  }
  attr {
    key: "_class"
    value {
      list {
        s: "loc:@First_conv/Conv/BatchNorm/moving_variance"
      }
    }
  }
  attr {
    key: "_output_shapes"
    value {
      list {
        shape {
          dim {
            size: 32
          }
        }
      }
    }
  }
  attr {
    key: "use_locking"
    value {
      b: false
    }
  }
}
node {
  name: "Net_prediction/First_conv/Conv/BatchNorm/batchnorm/add/y"
  op: "Const"
  attr {
    key: "_output_shapes"
    value {
      list {
        shape {
        }
      }
    }
  }
  attr {
    key: "dtype"
    value {
      type: DT_FLOAT
    }
  }
  attr {
    key: "value"
    value {
      tensor {
        dtype: DT_FLOAT
        tensor_shape {
        }
        float_val: 0.0010000000474974513
      }
    }
  }
}
node {
  name: "Net_prediction/First_conv/Conv/BatchNorm/batchnorm/add"
  op: "Add"
  input: "Net_prediction/First_conv/Conv/BatchNorm/moments/Squeeze_1"
  input: "Net_prediction/First_conv/Conv/BatchNorm/batchnorm/add/y"
  attr {
    key: "T"
    value {
      type: DT_FLOAT
    }
  }
  attr {
    key: "_output_shapes"
    value {
      list {
        shape {
          dim {
            size: 32
          }
        }
      }
    }
  }
}
node {
  name: "Net_prediction/First_conv/Conv/BatchNorm/batchnorm/Rsqrt"
  op: "Rsqrt"
  input: "Net_prediction/First_conv/Conv/BatchNorm/batchnorm/add"
  attr {
    key: "T"
    value {
      type: DT_FLOAT
    }
  }
  attr {
    key: "_output_shapes"
    value {
      list {
        shape {
          dim {
            size: 32
          }
        }
      }
    }
  }
}
node {
  name: "Net_prediction/First_conv/Conv/BatchNorm/batchnorm/mul"
  op: "Mul"
  input: "Net_prediction/First_conv/Conv/convolution"
  input: "Net_prediction/First_conv/Conv/BatchNorm/batchnorm/Rsqrt"
  attr {
    key: "T"
    value {
      type: DT_FLOAT
    }
  }
  attr {
    key: "_output_shapes"
    value {
      list {
        shape {
          dim {
            size: -1
          }
          dim {
            size: 300
          }
          dim {
            size: 300
          }
          dim {
            size: 32
          }
        }
      }
    }
  }
}
node {
  name: "Net_prediction/First_conv/Conv/BatchNorm/batchnorm/mul_1"
  op: "Mul"
  input: "Net_prediction/First_conv/Conv/BatchNorm/moments/Squeeze"
  input: "Net_prediction/First_conv/Conv/BatchNorm/batchnorm/Rsqrt"
  attr {
    key: "T"
    value {
      type: DT_FLOAT
    }
  }
  attr {
    key: "_output_shapes"
    value {
      list {
        shape {
          dim {
            size: 32
          }
        }
      }
    }
  }
}
node {
  name: "Net_prediction/First_conv/Conv/BatchNorm/batchnorm/sub"
  op: "Sub"
  input: "First_conv/Conv/BatchNorm/beta/read"
  input: "Net_prediction/First_conv/Conv/BatchNorm/batchnorm/mul_1"
  attr {
    key: "T"
    value {
      type: DT_FLOAT
    }
  }
  attr {
    key: "_output_shapes"
    value {
      list {
        shape {
          dim {
            size: 32
          }
        }
      }
    }
  }
}
node {
  name: "Net_prediction/First_conv/Conv/BatchNorm/batchnorm/add_1"
  op: "Add"
  input: "Net_prediction/First_conv/Conv/BatchNorm/batchnorm/mul"
  input: "Net_prediction/First_conv/Conv/BatchNorm/batchnorm/sub"
  attr {
    key: "T"
    value {
      type: DT_FLOAT
    }
  }
  attr {
    key: "_output_shapes"
    value {
      list {
        shape {
          dim {
            size: -1
          }
          dim {
            size: 300
          }
          dim {
            size: 300
          }
          dim {
            size: 32
          }
        }
      }
    }
  }
}
node {
  name: "Net_prediction/First_conv/Conv/Relu"
  op: "Relu"
  input: "Net_prediction/First_conv/Conv/BatchNorm/batchnorm/add_1"
  attr {
    key: "T"
    value {
      type: DT_FLOAT
    }
  }
  attr {
    key: "_output_shapes"
    value {
      list {
        shape {
          dim {
            size: -1
          }
          dim {
            size: 300
          }
          dim {
            size: 300
          }
          dim {
            size: 32
          }
        }
      }
    }
  }
}
node {
  name: "inverted_bottleneck1_1_0/Conv/weights/Initializer/random_uniform/shape"
  op: "Const"
  attr {
    key: "_class"
    value {
      list {
        s: "loc:@inverted_bottleneck1_1_0/Conv/weights"
      }
    }
  }
  attr {
    key: "_output_shapes"
    value {
      list {
        shape {
          dim {
            size: 4
          }
        }
      }
    }
  }
  attr {
    key: "dtype"
    value {
      type: DT_INT32
    }
  }
  attr {
    key: "value"
    value {
      tensor {
        dtype: DT_INT32
        tensor_shape {
          dim {
            size: 4
          }
        }
        tensor_content: "\001\000\000\000\001\000\000\000 \000\000\000 \000\000\000"
      }
    }
  }
}
node {
  name: "inverted_bottleneck1_1_0/Conv/weights/Initializer/random_uniform/min"
  op: "Const"
  attr {
    key: "_class"
    value {
      list {
        s: "loc:@inverted_bottleneck1_1_0/Conv/weights"
      }
    }
  }
  attr {
    key: "_output_shapes"
    value {
      list {
        shape {
        }
      }
    }
  }
  attr {
    key: "dtype"
    value {
      type: DT_FLOAT
    }
  }
  attr {
    key: "value"
    value {
      tensor {
        dtype: DT_FLOAT
        tensor_shape {
        }
        float_val: -0.3061862289905548
      }
    }
  }
}
node {
  name: "inverted_bottleneck1_1_0/Conv/weights/Initializer/random_uniform/max"
  op: "Const"
  attr {
    key: "_class"
    value {
      list {
        s: "loc:@inverted_bottleneck1_1_0/Conv/weights"
      }
    }
  }
  attr {
    key: "_output_shapes"
    value {
      list {
        shape {
        }
      }
    }
  }
  attr {
    key: "dtype"
    value {
      type: DT_FLOAT
    }
  }
  attr {
    key: "value"
    value {
      tensor {
        dtype: DT_FLOAT
        tensor_shape {
        }
        float_val: 0.3061862289905548
      }
    }
  }
}
node {
  name: "inverted_bottleneck1_1_0/Conv/weights/Initializer/random_uniform/RandomUniform"
  op: "RandomUniform"
  input: "inverted_bottleneck1_1_0/Conv/weights/Initializer/random_uniform/shape"
  attr {
    key: "T"
    value {
      type: DT_INT32
    }
  }
  attr {
    key: "_class"
    value {
      list {
        s: "loc:@inverted_bottleneck1_1_0/Conv/weights"
      }
    }
  }
  attr {
    key: "_output_shapes"
    value {
      list {
        shape {
          dim {
            size: 1
          }
          dim {
            size: 1
          }
          dim {
            size: 32
          }
          dim {
            size: 32
          }
        }
      }
    }
  }
  attr {
    key: "dtype"
    value {
      type: DT_FLOAT
    }
  }
  attr {
    key: "seed"
    value {
      i: 0
    }
  }
  attr {
    key: "seed2"
    value {
      i: 0
    }
  }
}
node {
  name: "inverted_bottleneck1_1_0/Conv/weights/Initializer/random_uniform/sub"
  op: "Sub"
  input: "inverted_bottleneck1_1_0/Conv/weights/Initializer/random_uniform/max"
  input: "inverted_bottleneck1_1_0/Conv/weights/Initializer/random_uniform/min"
  attr {
    key: "T"
    value {
      type: DT_FLOAT
    }
  }
  attr {
    key: "_class"
    value {
      list {
        s: "loc:@inverted_bottleneck1_1_0/Conv/weights"
      }
    }
  }
  attr {
    key: "_output_shapes"
    value {
      list {
        shape {
        }
      }
    }
  }
}
node {
  name: "inverted_bottleneck1_1_0/Conv/weights/Initializer/random_uniform/mul"
  op: "Mul"
  input: "inverted_bottleneck1_1_0/Conv/weights/Initializer/random_uniform/RandomUniform"
  input: "inverted_bottleneck1_1_0/Conv/weights/Initializer/random_uniform/sub"
  attr {
    key: "T"
    value {
      type: DT_FLOAT
    }
  }
  attr {
    key: "_class"
    value {
      list {
        s: "loc:@inverted_bottleneck1_1_0/Conv/weights"
      }
    }
  }
  attr {
    key: "_output_shapes"
    value {
      list {
        shape {
          dim {
            size: 1
          }
          dim {
            size: 1
          }
          dim {
            size: 32
          }
          dim {
            size: 32
          }
        }
      }
    }
  }
}
node {
  name: "inverted_bottleneck1_1_0/Conv/weights/Initializer/random_uniform"
  op: "Add"
  input: "inverted_bottleneck1_1_0/Conv/weights/Initializer/random_uniform/mul"
  input: "inverted_bottleneck1_1_0/Conv/weights/Initializer/random_uniform/min"
  attr {
    key: "T"
    value {
      type: DT_FLOAT
    }
  }
  attr {
    key: "_class"
    value {
      list {
        s: "loc:@inverted_bottleneck1_1_0/Conv/weights"
      }
    }
  }
  attr {
    key: "_output_shapes"
    value {
      list {
        shape {
          dim {
            size: 1
          }
          dim {
            size: 1
          }
          dim {
            size: 32
          }
          dim {
            size: 32
          }
        }
      }
    }
  }
}
node {
  name: "inverted_bottleneck1_1_0/Conv/weights"
  op: "VariableV2"
  attr {
    key: "_class"
    value {
      list {
        s: "loc:@inverted_bottleneck1_1_0/Conv/weights"
      }
    }
  }
  attr {
    key: "_output_shapes"
    value {
      list {
        shape {
          dim {
            size: 1
          }
          dim {
            size: 1
          }
          dim {
            size: 32
          }
          dim {
            size: 32
          }
        }
      }
    }
  }
  attr {
    key: "container"
    value {
      s: ""
    }
  }
  attr {
    key: "dtype"
    value {
      type: DT_FLOAT
    }
  }
  attr {
    key: "shape"
    value {
      shape {
        dim {
          size: 1
        }
        dim {
          size: 1
        }
        dim {
          size: 32
        }
        dim {
          size: 32
        }
      }
    }
  }
  attr {
    key: "shared_name"
    value {
      s: ""
    }
  }
}
node {
  name: "inverted_bottleneck1_1_0/Conv/weights/Assign"
  op: "Assign"
  input: "inverted_bottleneck1_1_0/Conv/weights"
  input: "inverted_bottleneck1_1_0/Conv/weights/Initializer/random_uniform"
  attr {
    key: "T"
    value {
      type: DT_FLOAT
    }
  }
  attr {
    key: "_class"
    value {
      list {
        s: "loc:@inverted_bottleneck1_1_0/Conv/weights"
      }
    }
  }
  attr {
    key: "_output_shapes"
    value {
      list {
        shape {
          dim {
            size: 1
          }
          dim {
            size: 1
          }
          dim {
            size: 32
          }
          dim {
            size: 32
          }
        }
      }
    }
  }
  attr {
    key: "use_locking"
    value {
      b: true
    }
  }
  attr {
    key: "validate_shape"
    value {
      b: true
    }
  }
}
node {
  name: "inverted_bottleneck1_1_0/Conv/weights/read"
  op: "Identity"
  input: "inverted_bottleneck1_1_0/Conv/weights"
  attr {
    key: "T"
    value {
      type: DT_FLOAT
    }
  }
  attr {
    key: "_class"
    value {
      list {
        s: "loc:@inverted_bottleneck1_1_0/Conv/weights"
      }
    }
  }
  attr {
    key: "_output_shapes"
    value {
      list {
        shape {
          dim {
            size: 1
          }
          dim {
            size: 1
          }
          dim {
            size: 32
          }
          dim {
            size: 32
          }
        }
      }
    }
  }
}
node {
  name: "Net_prediction/inverted_bottleneck1_1_0/Conv/convolution/Shape"
  op: "Const"
  attr {
    key: "_output_shapes"
    value {
      list {
        shape {
          dim {
            size: 4
          }
        }
      }
    }
  }
  attr {
    key: "dtype"
    value {
      type: DT_INT32
    }
  }
  attr {
    key: "value"
    value {
      tensor {
        dtype: DT_INT32
        tensor_shape {
          dim {
            size: 4
          }
        }
        tensor_content: "\001\000\000\000\001\000\000\000 \000\000\000 \000\000\000"
      }
    }
  }
}
node {
  name: "Net_prediction/inverted_bottleneck1_1_0/Conv/convolution/dilation_rate"
  op: "Const"
  attr {
    key: "_output_shapes"
    value {
      list {
        shape {
          dim {
            size: 2
          }
        }
      }
    }
  }
  attr {
    key: "dtype"
    value {
      type: DT_INT32
    }
  }
  attr {
    key: "value"
    value {
      tensor {
        dtype: DT_INT32
        tensor_shape {
          dim {
            size: 2
          }
        }
        tensor_content: "\001\000\000\000\001\000\000\000"
      }
    }
  }
}
node {
  name: "Net_prediction/inverted_bottleneck1_1_0/Conv/convolution"
  op: "Conv2D"
  input: "Net_prediction/First_conv/Conv/Relu"
  input: "inverted_bottleneck1_1_0/Conv/weights/read"
  attr {
    key: "T"
    value {
      type: DT_FLOAT
    }
  }
  attr {
    key: "_output_shapes"
    value {
      list {
        shape {
          dim {
            size: -1
          }
          dim {
            size: 300
          }
          dim {
            size: 300
          }
          dim {
            size: 32
          }
        }
      }
    }
  }
  attr {
    key: "data_format"
    value {
      s: "NHWC"
    }
  }
  attr {
    key: "padding"
    value {
      s: "SAME"
    }
  }
  attr {
    key: "strides"
    value {
      list {
        i: 1
        i: 1
        i: 1
        i: 1
      }
    }
  }
  attr {
    key: "use_cudnn_on_gpu"
    value {
      b: true
    }
  }
}
node {
  name: "inverted_bottleneck1_1_0/Conv/BatchNorm/beta/Initializer/zeros"
  op: "Const"
  attr {
    key: "_class"
    value {
      list {
        s: "loc:@inverted_bottleneck1_1_0/Conv/BatchNorm/beta"
      }
    }
  }
  attr {
    key: "_output_shapes"
    value {
      list {
        shape {
          dim {
            size: 32
          }
        }
      }
    }
  }
  attr {
    key: "dtype"
    value {
      type: DT_FLOAT
    }
  }
  attr {
    key: "value"
    value {
      tensor {
        dtype: DT_FLOAT
        tensor_shape {
          dim {
            size: 32
          }
        }
        float_val: 0.0
      }
    }
  }
}
node {
  name: "inverted_bottleneck1_1_0/Conv/BatchNorm/beta"
  op: "VariableV2"
  attr {
    key: "_class"
    value {
      list {
        s: "loc:@inverted_bottleneck1_1_0/Conv/BatchNorm/beta"
      }
    }
  }
  attr {
    key: "_output_shapes"
    value {
      list {
        shape {
          dim {
            size: 32
          }
        }
      }
    }
  }
  attr {
    key: "container"
    value {
      s: ""
    }
  }
  attr {
    key: "dtype"
    value {
      type: DT_FLOAT
    }
  }
  attr {
    key: "shape"
    value {
      shape {
        dim {
          size: 32
        }
      }
    }
  }
  attr {
    key: "shared_name"
    value {
      s: ""
    }
  }
}
node {
  name: "inverted_bottleneck1_1_0/Conv/BatchNorm/beta/Assign"
  op: "Assign"
  input: "inverted_bottleneck1_1_0/Conv/BatchNorm/beta"
  input: "inverted_bottleneck1_1_0/Conv/BatchNorm/beta/Initializer/zeros"
  attr {
    key: "T"
    value {
      type: DT_FLOAT
    }
  }
  attr {
    key: "_class"
    value {
      list {
        s: "loc:@inverted_bottleneck1_1_0/Conv/BatchNorm/beta"
      }
    }
  }
  attr {
    key: "_output_shapes"
    value {
      list {
        shape {
          dim {
            size: 32
          }
        }
      }
    }
  }
  attr {
    key: "use_locking"
    value {
      b: true
    }
  }
  attr {
    key: "validate_shape"
    value {
      b: true
    }
  }
}
node {
  name: "inverted_bottleneck1_1_0/Conv/BatchNorm/beta/read"
  op: "Identity"
  input: "inverted_bottleneck1_1_0/Conv/BatchNorm/beta"
  attr {
    key: "T"
    value {
      type: DT_FLOAT
    }
  }
  attr {
    key: "_class"
    value {
      list {
        s: "loc:@inverted_bottleneck1_1_0/Conv/BatchNorm/beta"
      }
    }
  }
  attr {
    key: "_output_shapes"
    value {
      list {
        shape {
          dim {
            size: 32
          }
        }
      }
    }
  }
}
node {
  name: "inverted_bottleneck1_1_0/Conv/BatchNorm/moving_mean/Initializer/zeros"
  op: "Const"
  attr {
    key: "_class"
    value {
      list {
        s: "loc:@inverted_bottleneck1_1_0/Conv/BatchNorm/moving_mean"
      }
    }
  }
  attr {
    key: "_output_shapes"
    value {
      list {
        shape {
          dim {
            size: 32
          }
        }
      }
    }
  }
  attr {
    key: "dtype"
    value {
      type: DT_FLOAT
    }
  }
  attr {
    key: "value"
    value {
      tensor {
        dtype: DT_FLOAT
        tensor_shape {
          dim {
            size: 32
          }
        }
        float_val: 0.0
      }
    }
  }
}
node {
  name: "inverted_bottleneck1_1_0/Conv/BatchNorm/moving_mean"
  op: "VariableV2"
  attr {
    key: "_class"
    value {
      list {
        s: "loc:@inverted_bottleneck1_1_0/Conv/BatchNorm/moving_mean"
      }
    }
  }
  attr {
    key: "_output_shapes"
    value {
      list {
        shape {
          dim {
            size: 32
          }
        }
      }
    }
  }
  attr {
    key: "container"
    value {
      s: ""
    }
  }
  attr {
    key: "dtype"
    value {
      type: DT_FLOAT
    }
  }
  attr {
    key: "shape"
    value {
      shape {
        dim {
          size: 32
        }
      }
    }
  }
  attr {
    key: "shared_name"
    value {
      s: ""
    }
  }
}
node {
  name: "inverted_bottleneck1_1_0/Conv/BatchNorm/moving_mean/Assign"
  op: "Assign"
  input: "inverted_bottleneck1_1_0/Conv/BatchNorm/moving_mean"
  input: "inverted_bottleneck1_1_0/Conv/BatchNorm/moving_mean/Initializer/zeros"
  attr {
    key: "T"
    value {
      type: DT_FLOAT
    }
  }
  attr {
    key: "_class"
    value {
      list {
        s: "loc:@inverted_bottleneck1_1_0/Conv/BatchNorm/moving_mean"
      }
    }
  }
  attr {
    key: "_output_shapes"
    value {
      list {
        shape {
          dim {
            size: 32
          }
        }
      }
    }
  }
  attr {
    key: "use_locking"
    value {
      b: true
    }
  }
  attr {
    key: "validate_shape"
    value {
      b: true
    }
  }
}
node {
  name: "inverted_bottleneck1_1_0/Conv/BatchNorm/moving_mean/read"
  op: "Identity"
  input: "inverted_bottleneck1_1_0/Conv/BatchNorm/moving_mean"
  attr {
    key: "T"
    value {
      type: DT_FLOAT
    }
  }
  attr {
    key: "_class"
    value {
      list {
        s: "loc:@inverted_bottleneck1_1_0/Conv/BatchNorm/moving_mean"
      }
    }
  }
  attr {
    key: "_output_shapes"
    value {
      list {
        shape {
          dim {
            size: 32
          }
        }
      }
    }
  }
}
node {
  name: "inverted_bottleneck1_1_0/Conv/BatchNorm/moving_variance/Initializer/ones"
  op: "Const"
  attr {
    key: "_class"
    value {
      list {
        s: "loc:@inverted_bottleneck1_1_0/Conv/BatchNorm/moving_variance"
      }
    }
  }
  attr {
    key: "_output_shapes"
    value {
      list {
        shape {
          dim {
            size: 32
          }
        }
      }
    }
  }
  attr {
    key: "dtype"
    value {
      type: DT_FLOAT
    }
  }
  attr {
    key: "value"
    value {
      tensor {
        dtype: DT_FLOAT
        tensor_shape {
          dim {
            size: 32
          }
        }
        float_val: 1.0
      }
    }
  }
}
node {
  name: "inverted_bottleneck1_1_0/Conv/BatchNorm/moving_variance"
  op: "VariableV2"
  attr {
    key: "_class"
    value {
      list {
        s: "loc:@inverted_bottleneck1_1_0/Conv/BatchNorm/moving_variance"
      }
    }
  }
  attr {
    key: "_output_shapes"
    value {
      list {
        shape {
          dim {
            size: 32
          }
        }
      }
    }
  }
  attr {
    key: "container"
    value {
      s: ""
    }
  }
  attr {
    key: "dtype"
    value {
      type: DT_FLOAT
    }
  }
  attr {
    key: "shape"
    value {
      shape {
        dim {
          size: 32
        }
      }
    }
  }
  attr {
    key: "shared_name"
    value {
      s: ""
    }
  }
}
node {
  name: "inverted_bottleneck1_1_0/Conv/BatchNorm/moving_variance/Assign"
  op: "Assign"
  input: "inverted_bottleneck1_1_0/Conv/BatchNorm/moving_variance"
  input: "inverted_bottleneck1_1_0/Conv/BatchNorm/moving_variance/Initializer/ones"
  attr {
    key: "T"
    value {
      type: DT_FLOAT
    }
  }
  attr {
    key: "_class"
    value {
      list {
        s: "loc:@inverted_bottleneck1_1_0/Conv/BatchNorm/moving_variance"
      }
    }
  }
  attr {
    key: "_output_shapes"
    value {
      list {
        shape {
          dim {
            size: 32
          }
        }
      }
    }
  }
  attr {
    key: "use_locking"
    value {
      b: true
    }
  }
  attr {
    key: "validate_shape"
    value {
      b: true
    }
  }
}
node {
  name: "inverted_bottleneck1_1_0/Conv/BatchNorm/moving_variance/read"
  op: "Identity"
  input: "inverted_bottleneck1_1_0/Conv/BatchNorm/moving_variance"
  attr {
    key: "T"
    value {
      type: DT_FLOAT
    }
  }
  attr {
    key: "_class"
    value {
      list {
        s: "loc:@inverted_bottleneck1_1_0/Conv/BatchNorm/moving_variance"
      }
    }
  }
  attr {
    key: "_output_shapes"
    value {
      list {
        shape {
          dim {
            size: 32
          }
        }
      }
    }
  }
}
node {
  name: "Net_prediction/inverted_bottleneck1_1_0/Conv/BatchNorm/moments/mean/reduction_indices"
  op: "Const"
  attr {
    key: "_output_shapes"
    value {
      list {
        shape {
          dim {
            size: 3
          }
        }
      }
    }
  }
  attr {
    key: "dtype"
    value {
      type: DT_INT32
    }
  }
  attr {
    key: "value"
    value {
      tensor {
        dtype: DT_INT32
        tensor_shape {
          dim {
            size: 3
          }
        }
        tensor_content: "\000\000\000\000\001\000\000\000\002\000\000\000"
      }
    }
  }
}
node {
  name: "Net_prediction/inverted_bottleneck1_1_0/Conv/BatchNorm/moments/mean"
  op: "Mean"
  input: "Net_prediction/inverted_bottleneck1_1_0/Conv/convolution"
  input: "Net_prediction/inverted_bottleneck1_1_0/Conv/BatchNorm/moments/mean/reduction_indices"
  attr {
    key: "T"
    value {
      type: DT_FLOAT
    }
  }
  attr {
    key: "Tidx"
    value {
      type: DT_INT32
    }
  }
  attr {
    key: "_output_shapes"
    value {
      list {
        shape {
          dim {
            size: 1
          }
          dim {
            size: 1
          }
          dim {
            size: 1
          }
          dim {
            size: 32
          }
        }
      }
    }
  }
  attr {
    key: "keep_dims"
    value {
      b: true
    }
  }
}
node {
  name: "Net_prediction/inverted_bottleneck1_1_0/Conv/BatchNorm/moments/StopGradient"
  op: "StopGradient"
  input: "Net_prediction/inverted_bottleneck1_1_0/Conv/BatchNorm/moments/mean"
  attr {
    key: "T"
    value {
      type: DT_FLOAT
    }
  }
  attr {
    key: "_output_shapes"
    value {
      list {
        shape {
          dim {
            size: 1
          }
          dim {
            size: 1
          }
          dim {
            size: 1
          }
          dim {
            size: 32
          }
        }
      }
    }
  }
}
node {
  name: "Net_prediction/inverted_bottleneck1_1_0/Conv/BatchNorm/moments/SquaredDifference"
  op: "SquaredDifference"
  input: "Net_prediction/inverted_bottleneck1_1_0/Conv/convolution"
  input: "Net_prediction/inverted_bottleneck1_1_0/Conv/BatchNorm/moments/StopGradient"
  attr {
    key: "T"
    value {
      type: DT_FLOAT
    }
  }
  attr {
    key: "_output_shapes"
    value {
      list {
        shape {
          dim {
            size: -1
          }
          dim {
            size: 300
          }
          dim {
            size: 300
          }
          dim {
            size: 32
          }
        }
      }
    }
  }
}
node {
  name: "Net_prediction/inverted_bottleneck1_1_0/Conv/BatchNorm/moments/variance/reduction_indices"
  op: "Const"
  attr {
    key: "_output_shapes"
    value {
      list {
        shape {
          dim {
            size: 3
          }
        }
      }
    }
  }
  attr {
    key: "dtype"
    value {
      type: DT_INT32
    }
  }
  attr {
    key: "value"
    value {
      tensor {
        dtype: DT_INT32
        tensor_shape {
          dim {
            size: 3
          }
        }
        tensor_content: "\000\000\000\000\001\000\000\000\002\000\000\000"
      }
    }
  }
}
node {
  name: "Net_prediction/inverted_bottleneck1_1_0/Conv/BatchNorm/moments/variance"
  op: "Mean"
  input: "Net_prediction/inverted_bottleneck1_1_0/Conv/BatchNorm/moments/SquaredDifference"
  input: "Net_prediction/inverted_bottleneck1_1_0/Conv/BatchNorm/moments/variance/reduction_indices"
  attr {
    key: "T"
    value {
      type: DT_FLOAT
    }
  }
  attr {
    key: "Tidx"
    value {
      type: DT_INT32
    }
  }
  attr {
    key: "_output_shapes"
    value {
      list {
        shape {
          dim {
            size: 1
          }
          dim {
            size: 1
          }
          dim {
            size: 1
          }
          dim {
            size: 32
          }
        }
      }
    }
  }
  attr {
    key: "keep_dims"
    value {
      b: true
    }
  }
}
node {
  name: "Net_prediction/inverted_bottleneck1_1_0/Conv/BatchNorm/moments/Squeeze"
  op: "Squeeze"
  input: "Net_prediction/inverted_bottleneck1_1_0/Conv/BatchNorm/moments/mean"
  attr {
    key: "T"
    value {
      type: DT_FLOAT
    }
  }
  attr {
    key: "_output_shapes"
    value {
      list {
        shape {
          dim {
            size: 32
          }
        }
      }
    }
  }
  attr {
    key: "squeeze_dims"
    value {
      list {
        i: 0
        i: 1
        i: 2
      }
    }
  }
}
node {
  name: "Net_prediction/inverted_bottleneck1_1_0/Conv/BatchNorm/moments/Squeeze_1"
  op: "Squeeze"
  input: "Net_prediction/inverted_bottleneck1_1_0/Conv/BatchNorm/moments/variance"
  attr {
    key: "T"
    value {
      type: DT_FLOAT
    }
  }
  attr {
    key: "_output_shapes"
    value {
      list {
        shape {
          dim {
            size: 32
          }
        }
      }
    }
  }
  attr {
    key: "squeeze_dims"
    value {
      list {
        i: 0
        i: 1
        i: 2
      }
    }
  }
}
node {
  name: "Net_prediction/inverted_bottleneck1_1_0/Conv/BatchNorm/AssignMovingAvg/decay"
  op: "Const"
  attr {
    key: "_class"
    value {
      list {
        s: "loc:@inverted_bottleneck1_1_0/Conv/BatchNorm/moving_mean"
      }
    }
  }
  attr {
    key: "_output_shapes"
    value {
      list {
        shape {
        }
      }
    }
  }
  attr {
    key: "dtype"
    value {
      type: DT_FLOAT
    }
  }
  attr {
    key: "value"
    value {
      tensor {
        dtype: DT_FLOAT
        tensor_shape {
        }
        float_val: 0.0010000000474974513
      }
    }
  }
}
node {
  name: "Net_prediction/inverted_bottleneck1_1_0/Conv/BatchNorm/AssignMovingAvg/sub"
  op: "Sub"
  input: "inverted_bottleneck1_1_0/Conv/BatchNorm/moving_mean/read"
  input: "Net_prediction/inverted_bottleneck1_1_0/Conv/BatchNorm/moments/Squeeze"
  attr {
    key: "T"
    value {
      type: DT_FLOAT
    }
  }
  attr {
    key: "_class"
    value {
      list {
        s: "loc:@inverted_bottleneck1_1_0/Conv/BatchNorm/moving_mean"
      }
    }
  }
  attr {
    key: "_output_shapes"
    value {
      list {
        shape {
          dim {
            size: 32
          }
        }
      }
    }
  }
}
node {
  name: "Net_prediction/inverted_bottleneck1_1_0/Conv/BatchNorm/AssignMovingAvg/mul"
  op: "Mul"
  input: "Net_prediction/inverted_bottleneck1_1_0/Conv/BatchNorm/AssignMovingAvg/sub"
  input: "Net_prediction/inverted_bottleneck1_1_0/Conv/BatchNorm/AssignMovingAvg/decay"
  attr {
    key: "T"
    value {
      type: DT_FLOAT
    }
  }
  attr {
    key: "_class"
    value {
      list {
        s: "loc:@inverted_bottleneck1_1_0/Conv/BatchNorm/moving_mean"
      }
    }
  }
  attr {
    key: "_output_shapes"
    value {
      list {
        shape {
          dim {
            size: 32
          }
        }
      }
    }
  }
}
node {
  name: "Net_prediction/inverted_bottleneck1_1_0/Conv/BatchNorm/AssignMovingAvg"
  op: "AssignSub"
  input: "inverted_bottleneck1_1_0/Conv/BatchNorm/moving_mean"
  input: "Net_prediction/inverted_bottleneck1_1_0/Conv/BatchNorm/AssignMovingAvg/mul"
  attr {
    key: "T"
    value {
      type: DT_FLOAT
    }
  }
  attr {
    key: "_class"
    value {
      list {
        s: "loc:@inverted_bottleneck1_1_0/Conv/BatchNorm/moving_mean"
      }
    }
  }
  attr {
    key: "_output_shapes"
    value {
      list {
        shape {
          dim {
            size: 32
          }
        }
      }
    }
  }
  attr {
    key: "use_locking"
    value {
      b: false
    }
  }
}
node {
  name: "Net_prediction/inverted_bottleneck1_1_0/Conv/BatchNorm/AssignMovingAvg_1/decay"
  op: "Const"
  attr {
    key: "_class"
    value {
      list {
        s: "loc:@inverted_bottleneck1_1_0/Conv/BatchNorm/moving_variance"
      }
    }
  }
  attr {
    key: "_output_shapes"
    value {
      list {
        shape {
        }
      }
    }
  }
  attr {
    key: "dtype"
    value {
      type: DT_FLOAT
    }
  }
  attr {
    key: "value"
    value {
      tensor {
        dtype: DT_FLOAT
        tensor_shape {
        }
        float_val: 0.0010000000474974513
      }
    }
  }
}
node {
  name: "Net_prediction/inverted_bottleneck1_1_0/Conv/BatchNorm/AssignMovingAvg_1/sub"
  op: "Sub"
  input: "inverted_bottleneck1_1_0/Conv/BatchNorm/moving_variance/read"
  input: "Net_prediction/inverted_bottleneck1_1_0/Conv/BatchNorm/moments/Squeeze_1"
  attr {
    key: "T"
    value {
      type: DT_FLOAT
    }
  }
  attr {
    key: "_class"
    value {
      list {
        s: "loc:@inverted_bottleneck1_1_0/Conv/BatchNorm/moving_variance"
      }
    }
  }
  attr {
    key: "_output_shapes"
    value {
      list {
        shape {
          dim {
            size: 32
          }
        }
      }
    }
  }
}
node {
  name: "Net_prediction/inverted_bottleneck1_1_0/Conv/BatchNorm/AssignMovingAvg_1/mul"
  op: "Mul"
  input: "Net_prediction/inverted_bottleneck1_1_0/Conv/BatchNorm/AssignMovingAvg_1/sub"
  input: "Net_prediction/inverted_bottleneck1_1_0/Conv/BatchNorm/AssignMovingAvg_1/decay"
  attr {
    key: "T"
    value {
      type: DT_FLOAT
    }
  }
  attr {
    key: "_class"
    value {
      list {
        s: "loc:@inverted_bottleneck1_1_0/Conv/BatchNorm/moving_variance"
      }
    }
  }
  attr {
    key: "_output_shapes"
    value {
      list {
        shape {
          dim {
            size: 32
          }
        }
      }
    }
  }
}
node {
  name: "Net_prediction/inverted_bottleneck1_1_0/Conv/BatchNorm/AssignMovingAvg_1"
  op: "AssignSub"
  input: "inverted_bottleneck1_1_0/Conv/BatchNorm/moving_variance"
  input: "Net_prediction/inverted_bottleneck1_1_0/Conv/BatchNorm/AssignMovingAvg_1/mul"
  attr {
    key: "T"
    value {
      type: DT_FLOAT
    }
  }
  attr {
    key: "_class"
    value {
      list {
        s: "loc:@inverted_bottleneck1_1_0/Conv/BatchNorm/moving_variance"
      }
    }
  }
  attr {
    key: "_output_shapes"
    value {
      list {
        shape {
          dim {
            size: 32
          }
        }
      }
    }
  }
  attr {
    key: "use_locking"
    value {
      b: false
    }
  }
}
node {
  name: "Net_prediction/inverted_bottleneck1_1_0/Conv/BatchNorm/batchnorm/add/y"
  op: "Const"
  attr {
    key: "_output_shapes"
    value {
      list {
        shape {
        }
      }
    }
  }
  attr {
    key: "dtype"
    value {
      type: DT_FLOAT
    }
  }
  attr {
    key: "value"
    value {
      tensor {
        dtype: DT_FLOAT
        tensor_shape {
        }
        float_val: 0.0010000000474974513
      }
    }
  }
}
node {
  name: "Net_prediction/inverted_bottleneck1_1_0/Conv/BatchNorm/batchnorm/add"
  op: "Add"
  input: "Net_prediction/inverted_bottleneck1_1_0/Conv/BatchNorm/moments/Squeeze_1"
  input: "Net_prediction/inverted_bottleneck1_1_0/Conv/BatchNorm/batchnorm/add/y"
  attr {
    key: "T"
    value {
      type: DT_FLOAT
    }
  }
  attr {
    key: "_output_shapes"
    value {
      list {
        shape {
          dim {
            size: 32
          }
        }
      }
    }
  }
}
node {
  name: "Net_prediction/inverted_bottleneck1_1_0/Conv/BatchNorm/batchnorm/Rsqrt"
  op: "Rsqrt"
  input: "Net_prediction/inverted_bottleneck1_1_0/Conv/BatchNorm/batchnorm/add"
  attr {
    key: "T"
    value {
      type: DT_FLOAT
    }
  }
  attr {
    key: "_output_shapes"
    value {
      list {
        shape {
          dim {
            size: 32
          }
        }
      }
    }
  }
}
node {
  name: "Net_prediction/inverted_bottleneck1_1_0/Conv/BatchNorm/batchnorm/mul"
  op: "Mul"
  input: "Net_prediction/inverted_bottleneck1_1_0/Conv/convolution"
  input: "Net_prediction/inverted_bottleneck1_1_0/Conv/BatchNorm/batchnorm/Rsqrt"
  attr {
    key: "T"
    value {
      type: DT_FLOAT
    }
  }
  attr {
    key: "_output_shapes"
    value {
      list {
        shape {
          dim {
            size: -1
          }
          dim {
            size: 300
          }
          dim {
            size: 300
          }
          dim {
            size: 32
          }
        }
      }
    }
  }
}
node {
  name: "Net_prediction/inverted_bottleneck1_1_0/Conv/BatchNorm/batchnorm/mul_1"
  op: "Mul"
  input: "Net_prediction/inverted_bottleneck1_1_0/Conv/BatchNorm/moments/Squeeze"
  input: "Net_prediction/inverted_bottleneck1_1_0/Conv/BatchNorm/batchnorm/Rsqrt"
  attr {
    key: "T"
    value {
      type: DT_FLOAT
    }
  }
  attr {
    key: "_output_shapes"
    value {
      list {
        shape {
          dim {
            size: 32
          }
        }
      }
    }
  }
}
node {
  name: "Net_prediction/inverted_bottleneck1_1_0/Conv/BatchNorm/batchnorm/sub"
  op: "Sub"
  input: "inverted_bottleneck1_1_0/Conv/BatchNorm/beta/read"
  input: "Net_prediction/inverted_bottleneck1_1_0/Conv/BatchNorm/batchnorm/mul_1"
  attr {
    key: "T"
    value {
      type: DT_FLOAT
    }
  }
  attr {
    key: "_output_shapes"
    value {
      list {
        shape {
          dim {
            size: 32
          }
        }
      }
    }
  }
}
node {
  name: "Net_prediction/inverted_bottleneck1_1_0/Conv/BatchNorm/batchnorm/add_1"
  op: "Add"
  input: "Net_prediction/inverted_bottleneck1_1_0/Conv/BatchNorm/batchnorm/mul"
  input: "Net_prediction/inverted_bottleneck1_1_0/Conv/BatchNorm/batchnorm/sub"
  attr {
    key: "T"
    value {
      type: DT_FLOAT
    }
  }
  attr {
    key: "_output_shapes"
    value {
      list {
        shape {
          dim {
            size: -1
          }
          dim {
            size: 300
          }
          dim {
            size: 300
          }
          dim {
            size: 32
          }
        }
      }
    }
  }
}
node {
  name: "Net_prediction/inverted_bottleneck1_1_0/Conv/Relu6"
  op: "Relu6"
  input: "Net_prediction/inverted_bottleneck1_1_0/Conv/BatchNorm/batchnorm/add_1"
  attr {
    key: "T"
    value {
      type: DT_FLOAT
    }
  }
  attr {
    key: "_output_shapes"
    value {
      list {
        shape {
          dim {
            size: -1
          }
          dim {
            size: 300
          }
          dim {
            size: 300
          }
          dim {
            size: 32
          }
        }
      }
    }
  }
}
node {
  name: "inverted_bottleneck1_1_0/SeparableConv2d/depthwise_weights/Initializer/random_uniform/shape"
  op: "Const"
  attr {
    key: "_class"
    value {
      list {
        s: "loc:@inverted_bottleneck1_1_0/SeparableConv2d/depthwise_weights"
      }
    }
  }
  attr {
    key: "_output_shapes"
    value {
      list {
        shape {
          dim {
            size: 4
          }
        }
      }
    }
  }
  attr {
    key: "dtype"
    value {
      type: DT_INT32
    }
  }
  attr {
    key: "value"
    value {
      tensor {
        dtype: DT_INT32
        tensor_shape {
          dim {
            size: 4
          }
        }
        tensor_content: "\003\000\000\000\003\000\000\000 \000\000\000\001\000\000\000"
      }
    }
  }
}
node {
  name: "inverted_bottleneck1_1_0/SeparableConv2d/depthwise_weights/Initializer/random_uniform/min"
  op: "Const"
  attr {
    key: "_class"
    value {
      list {
        s: "loc:@inverted_bottleneck1_1_0/SeparableConv2d/depthwise_weights"
      }
    }
  }
  attr {
    key: "_output_shapes"
    value {
      list {
        shape {
        }
      }
    }
  }
  attr {
    key: "dtype"
    value {
      type: DT_FLOAT
    }
  }
  attr {
    key: "value"
    value {
      tensor {
        dtype: DT_FLOAT
        tensor_shape {
        }
        float_val: -0.14213381707668304
      }
    }
  }
}
node {
  name: "inverted_bottleneck1_1_0/SeparableConv2d/depthwise_weights/Initializer/random_uniform/max"
  op: "Const"
  attr {
    key: "_class"
    value {
      list {
        s: "loc:@inverted_bottleneck1_1_0/SeparableConv2d/depthwise_weights"
      }
    }
  }
  attr {
    key: "_output_shapes"
    value {
      list {
        shape {
        }
      }
    }
  }
  attr {
    key: "dtype"
    value {
      type: DT_FLOAT
    }
  }
  attr {
    key: "value"
    value {
      tensor {
        dtype: DT_FLOAT
        tensor_shape {
        }
        float_val: 0.14213381707668304
      }
    }
  }
}
node {
  name: "inverted_bottleneck1_1_0/SeparableConv2d/depthwise_weights/Initializer/random_uniform/RandomUniform"
  op: "RandomUniform"
  input: "inverted_bottleneck1_1_0/SeparableConv2d/depthwise_weights/Initializer/random_uniform/shape"
  attr {
    key: "T"
    value {
      type: DT_INT32
    }
  }
  attr {
    key: "_class"
    value {
      list {
        s: "loc:@inverted_bottleneck1_1_0/SeparableConv2d/depthwise_weights"
      }
    }
  }
  attr {
    key: "_output_shapes"
    value {
      list {
        shape {
          dim {
            size: 3
          }
          dim {
            size: 3
          }
          dim {
            size: 32
          }
          dim {
            size: 1
          }
        }
      }
    }
  }
  attr {
    key: "dtype"
    value {
      type: DT_FLOAT
    }
  }
  attr {
    key: "seed"
    value {
      i: 0
    }
  }
  attr {
    key: "seed2"
    value {
      i: 0
    }
  }
}
node {
  name: "inverted_bottleneck1_1_0/SeparableConv2d/depthwise_weights/Initializer/random_uniform/sub"
  op: "Sub"
  input: "inverted_bottleneck1_1_0/SeparableConv2d/depthwise_weights/Initializer/random_uniform/max"
  input: "inverted_bottleneck1_1_0/SeparableConv2d/depthwise_weights/Initializer/random_uniform/min"
  attr {
    key: "T"
    value {
      type: DT_FLOAT
    }
  }
  attr {
    key: "_class"
    value {
      list {
        s: "loc:@inverted_bottleneck1_1_0/SeparableConv2d/depthwise_weights"
      }
    }
  }
  attr {
    key: "_output_shapes"
    value {
      list {
        shape {
        }
      }
    }
  }
}
node {
  name: "inverted_bottleneck1_1_0/SeparableConv2d/depthwise_weights/Initializer/random_uniform/mul"
  op: "Mul"
  input: "inverted_bottleneck1_1_0/SeparableConv2d/depthwise_weights/Initializer/random_uniform/RandomUniform"
  input: "inverted_bottleneck1_1_0/SeparableConv2d/depthwise_weights/Initializer/random_uniform/sub"
  attr {
    key: "T"
    value {
      type: DT_FLOAT
    }
  }
  attr {
    key: "_class"
    value {
      list {
        s: "loc:@inverted_bottleneck1_1_0/SeparableConv2d/depthwise_weights"
      }
    }
  }
  attr {
    key: "_output_shapes"
    value {
      list {
        shape {
          dim {
            size: 3
          }
          dim {
            size: 3
          }
          dim {
            size: 32
          }
          dim {
            size: 1
          }
        }
      }
    }
  }
}
node {
  name: "inverted_bottleneck1_1_0/SeparableConv2d/depthwise_weights/Initializer/random_uniform"
  op: "Add"
  input: "inverted_bottleneck1_1_0/SeparableConv2d/depthwise_weights/Initializer/random_uniform/mul"
  input: "inverted_bottleneck1_1_0/SeparableConv2d/depthwise_weights/Initializer/random_uniform/min"
  attr {
    key: "T"
    value {
      type: DT_FLOAT
    }
  }
  attr {
    key: "_class"
    value {
      list {
        s: "loc:@inverted_bottleneck1_1_0/SeparableConv2d/depthwise_weights"
      }
    }
  }
  attr {
    key: "_output_shapes"
    value {
      list {
        shape {
          dim {
            size: 3
          }
          dim {
            size: 3
          }
          dim {
            size: 32
          }
          dim {
            size: 1
          }
        }
      }
    }
  }
}
node {
  name: "inverted_bottleneck1_1_0/SeparableConv2d/depthwise_weights"
  op: "VariableV2"
  attr {
    key: "_class"
    value {
      list {
        s: "loc:@inverted_bottleneck1_1_0/SeparableConv2d/depthwise_weights"
      }
    }
  }
  attr {
    key: "_output_shapes"
    value {
      list {
        shape {
          dim {
            size: 3
          }
          dim {
            size: 3
          }
          dim {
            size: 32
          }
          dim {
            size: 1
          }
        }
      }
    }
  }
  attr {
    key: "container"
    value {
      s: ""
    }
  }
  attr {
    key: "dtype"
    value {
      type: DT_FLOAT
    }
  }
  attr {
    key: "shape"
    value {
      shape {
        dim {
          size: 3
        }
        dim {
          size: 3
        }
        dim {
          size: 32
        }
        dim {
          size: 1
        }
      }
    }
  }
  attr {
    key: "shared_name"
    value {
      s: ""
    }
  }
}
node {
  name: "inverted_bottleneck1_1_0/SeparableConv2d/depthwise_weights/Assign"
  op: "Assign"
  input: "inverted_bottleneck1_1_0/SeparableConv2d/depthwise_weights"
  input: "inverted_bottleneck1_1_0/SeparableConv2d/depthwise_weights/Initializer/random_uniform"
  attr {
    key: "T"
    value {
      type: DT_FLOAT
    }
  }
  attr {
    key: "_class"
    value {
      list {
        s: "loc:@inverted_bottleneck1_1_0/SeparableConv2d/depthwise_weights"
      }
    }
  }
  attr {
    key: "_output_shapes"
    value {
      list {
        shape {
          dim {
            size: 3
          }
          dim {
            size: 3
          }
          dim {
            size: 32
          }
          dim {
            size: 1
          }
        }
      }
    }
  }
  attr {
    key: "use_locking"
    value {
      b: true
    }
  }
  attr {
    key: "validate_shape"
    value {
      b: true
    }
  }
}
node {
  name: "inverted_bottleneck1_1_0/SeparableConv2d/depthwise_weights/read"
  op: "Identity"
  input: "inverted_bottleneck1_1_0/SeparableConv2d/depthwise_weights"
  attr {
    key: "T"
    value {
      type: DT_FLOAT
    }
  }
  attr {
    key: "_class"
    value {
      list {
        s: "loc:@inverted_bottleneck1_1_0/SeparableConv2d/depthwise_weights"
      }
    }
  }
  attr {
    key: "_output_shapes"
    value {
      list {
        shape {
          dim {
            size: 3
          }
          dim {
            size: 3
          }
          dim {
            size: 32
          }
          dim {
            size: 1
          }
        }
      }
    }
  }
}
node {
  name: "Net_prediction/inverted_bottleneck1_1_0/SeparableConv2d/depthwise/Shape"
  op: "Const"
  attr {
    key: "_output_shapes"
    value {
      list {
        shape {
          dim {
            size: 4
          }
        }
      }
    }
  }
  attr {
    key: "dtype"
    value {
      type: DT_INT32
    }
  }
  attr {
    key: "value"
    value {
      tensor {
        dtype: DT_INT32
        tensor_shape {
          dim {
            size: 4
          }
        }
        tensor_content: "\003\000\000\000\003\000\000\000 \000\000\000\001\000\000\000"
      }
    }
  }
}
node {
  name: "Net_prediction/inverted_bottleneck1_1_0/SeparableConv2d/depthwise/dilation_rate"
  op: "Const"
  attr {
    key: "_output_shapes"
    value {
      list {
        shape {
          dim {
            size: 2
          }
        }
      }
    }
  }
  attr {
    key: "dtype"
    value {
      type: DT_INT32
    }
  }
  attr {
    key: "value"
    value {
      tensor {
        dtype: DT_INT32
        tensor_shape {
          dim {
            size: 2
          }
        }
        tensor_content: "\001\000\000\000\001\000\000\000"
      }
    }
  }
}
node {
  name: "Net_prediction/inverted_bottleneck1_1_0/SeparableConv2d/depthwise"
  op: "DepthwiseConv2dNative"
  input: "Net_prediction/inverted_bottleneck1_1_0/Conv/Relu6"
  input: "inverted_bottleneck1_1_0/SeparableConv2d/depthwise_weights/read"
  attr {
    key: "T"
    value {
      type: DT_FLOAT
    }
  }
  attr {
    key: "_output_shapes"
    value {
      list {
        shape {
          dim {
            size: -1
          }
          dim {
            size: 300
          }
          dim {
            size: 300
          }
          dim {
            size: 32
          }
        }
      }
    }
  }
  attr {
    key: "data_format"
    value {
      s: "NHWC"
    }
  }
  attr {
    key: "padding"
    value {
      s: "SAME"
    }
  }
  attr {
    key: "strides"
    value {
      list {
        i: 1
        i: 1
        i: 1
        i: 1
      }
    }
  }
}
node {
  name: "inverted_bottleneck1_1_0/SeparableConv2d/BatchNorm/beta/Initializer/zeros"
  op: "Const"
  attr {
    key: "_class"
    value {
      list {
        s: "loc:@inverted_bottleneck1_1_0/SeparableConv2d/BatchNorm/beta"
      }
    }
  }
  attr {
    key: "_output_shapes"
    value {
      list {
        shape {
          dim {
            size: 32
          }
        }
      }
    }
  }
  attr {
    key: "dtype"
    value {
      type: DT_FLOAT
    }
  }
  attr {
    key: "value"
    value {
      tensor {
        dtype: DT_FLOAT
        tensor_shape {
          dim {
            size: 32
          }
        }
        float_val: 0.0
      }
    }
  }
}
node {
  name: "inverted_bottleneck1_1_0/SeparableConv2d/BatchNorm/beta"
  op: "VariableV2"
  attr {
    key: "_class"
    value {
      list {
        s: "loc:@inverted_bottleneck1_1_0/SeparableConv2d/BatchNorm/beta"
      }
    }
  }
  attr {
    key: "_output_shapes"
    value {
      list {
        shape {
          dim {
            size: 32
          }
        }
      }
    }
  }
  attr {
    key: "container"
    value {
      s: ""
    }
  }
  attr {
    key: "dtype"
    value {
      type: DT_FLOAT
    }
  }
  attr {
    key: "shape"
    value {
      shape {
        dim {
          size: 32
        }
      }
    }
  }
  attr {
    key: "shared_name"
    value {
      s: ""
    }
  }
}
node {
  name: "inverted_bottleneck1_1_0/SeparableConv2d/BatchNorm/beta/Assign"
  op: "Assign"
  input: "inverted_bottleneck1_1_0/SeparableConv2d/BatchNorm/beta"
  input: "inverted_bottleneck1_1_0/SeparableConv2d/BatchNorm/beta/Initializer/zeros"
  attr {
    key: "T"
    value {
      type: DT_FLOAT
    }
  }
  attr {
    key: "_class"
    value {
      list {
        s: "loc:@inverted_bottleneck1_1_0/SeparableConv2d/BatchNorm/beta"
      }
    }
  }
  attr {
    key: "_output_shapes"
    value {
      list {
        shape {
          dim {
            size: 32
          }
        }
      }
    }
  }
  attr {
    key: "use_locking"
    value {
      b: true
    }
  }
  attr {
    key: "validate_shape"
    value {
      b: true
    }
  }
}
node {
  name: "inverted_bottleneck1_1_0/SeparableConv2d/BatchNorm/beta/read"
  op: "Identity"
  input: "inverted_bottleneck1_1_0/SeparableConv2d/BatchNorm/beta"
  attr {
    key: "T"
    value {
      type: DT_FLOAT
    }
  }
  attr {
    key: "_class"
    value {
      list {
        s: "loc:@inverted_bottleneck1_1_0/SeparableConv2d/BatchNorm/beta"
      }
    }
  }
  attr {
    key: "_output_shapes"
    value {
      list {
        shape {
          dim {
            size: 32
          }
        }
      }
    }
  }
}
node {
  name: "inverted_bottleneck1_1_0/SeparableConv2d/BatchNorm/moving_mean/Initializer/zeros"
  op: "Const"
  attr {
    key: "_class"
    value {
      list {
        s: "loc:@inverted_bottleneck1_1_0/SeparableConv2d/BatchNorm/moving_mean"
      }
    }
  }
  attr {
    key: "_output_shapes"
    value {
      list {
        shape {
          dim {
            size: 32
          }
        }
      }
    }
  }
  attr {
    key: "dtype"
    value {
      type: DT_FLOAT
    }
  }
  attr {
    key: "value"
    value {
      tensor {
        dtype: DT_FLOAT
        tensor_shape {
          dim {
            size: 32
          }
        }
        float_val: 0.0
      }
    }
  }
}
node {
  name: "inverted_bottleneck1_1_0/SeparableConv2d/BatchNorm/moving_mean"
  op: "VariableV2"
  attr {
    key: "_class"
    value {
      list {
        s: "loc:@inverted_bottleneck1_1_0/SeparableConv2d/BatchNorm/moving_mean"
      }
    }
  }
  attr {
    key: "_output_shapes"
    value {
      list {
        shape {
          dim {
            size: 32
          }
        }
      }
    }
  }
  attr {
    key: "container"
    value {
      s: ""
    }
  }
  attr {
    key: "dtype"
    value {
      type: DT_FLOAT
    }
  }
  attr {
    key: "shape"
    value {
      shape {
        dim {
          size: 32
        }
      }
    }
  }
  attr {
    key: "shared_name"
    value {
      s: ""
    }
  }
}
node {
  name: "inverted_bottleneck1_1_0/SeparableConv2d/BatchNorm/moving_mean/Assign"
  op: "Assign"
  input: "inverted_bottleneck1_1_0/SeparableConv2d/BatchNorm/moving_mean"
  input: "inverted_bottleneck1_1_0/SeparableConv2d/BatchNorm/moving_mean/Initializer/zeros"
  attr {
    key: "T"
    value {
      type: DT_FLOAT
    }
  }
  attr {
    key: "_class"
    value {
      list {
        s: "loc:@inverted_bottleneck1_1_0/SeparableConv2d/BatchNorm/moving_mean"
      }
    }
  }
  attr {
    key: "_output_shapes"
    value {
      list {
        shape {
          dim {
            size: 32
          }
        }
      }
    }
  }
  attr {
    key: "use_locking"
    value {
      b: true
    }
  }
  attr {
    key: "validate_shape"
    value {
      b: true
    }
  }
}
node {
  name: "inverted_bottleneck1_1_0/SeparableConv2d/BatchNorm/moving_mean/read"
  op: "Identity"
  input: "inverted_bottleneck1_1_0/SeparableConv2d/BatchNorm/moving_mean"
  attr {
    key: "T"
    value {
      type: DT_FLOAT
    }
  }
  attr {
    key: "_class"
    value {
      list {
        s: "loc:@inverted_bottleneck1_1_0/SeparableConv2d/BatchNorm/moving_mean"
      }
    }
  }
  attr {
    key: "_output_shapes"
    value {
      list {
        shape {
          dim {
            size: 32
          }
        }
      }
    }
  }
}
node {
  name: "inverted_bottleneck1_1_0/SeparableConv2d/BatchNorm/moving_variance/Initializer/ones"
  op: "Const"
  attr {
    key: "_class"
    value {
      list {
        s: "loc:@inverted_bottleneck1_1_0/SeparableConv2d/BatchNorm/moving_variance"
      }
    }
  }
  attr {
    key: "_output_shapes"
    value {
      list {
        shape {
          dim {
            size: 32
          }
        }
      }
    }
  }
  attr {
    key: "dtype"
    value {
      type: DT_FLOAT
    }
  }
  attr {
    key: "value"
    value {
      tensor {
        dtype: DT_FLOAT
        tensor_shape {
          dim {
            size: 32
          }
        }
        float_val: 1.0
      }
    }
  }
}
node {
  name: "inverted_bottleneck1_1_0/SeparableConv2d/BatchNorm/moving_variance"
  op: "VariableV2"
  attr {
    key: "_class"
    value {
      list {
        s: "loc:@inverted_bottleneck1_1_0/SeparableConv2d/BatchNorm/moving_variance"
      }
    }
  }
  attr {
    key: "_output_shapes"
    value {
      list {
        shape {
          dim {
            size: 32
          }
        }
      }
    }
  }
  attr {
    key: "container"
    value {
      s: ""
    }
  }
  attr {
    key: "dtype"
    value {
      type: DT_FLOAT
    }
  }
  attr {
    key: "shape"
    value {
      shape {
        dim {
          size: 32
        }
      }
    }
  }
  attr {
    key: "shared_name"
    value {
      s: ""
    }
  }
}
node {
  name: "inverted_bottleneck1_1_0/SeparableConv2d/BatchNorm/moving_variance/Assign"
  op: "Assign"
  input: "inverted_bottleneck1_1_0/SeparableConv2d/BatchNorm/moving_variance"
  input: "inverted_bottleneck1_1_0/SeparableConv2d/BatchNorm/moving_variance/Initializer/ones"
  attr {
    key: "T"
    value {
      type: DT_FLOAT
    }
  }
  attr {
    key: "_class"
    value {
      list {
        s: "loc:@inverted_bottleneck1_1_0/SeparableConv2d/BatchNorm/moving_variance"
      }
    }
  }
  attr {
    key: "_output_shapes"
    value {
      list {
        shape {
          dim {
            size: 32
          }
        }
      }
    }
  }
  attr {
    key: "use_locking"
    value {
      b: true
    }
  }
  attr {
    key: "validate_shape"
    value {
      b: true
    }
  }
}
node {
  name: "inverted_bottleneck1_1_0/SeparableConv2d/BatchNorm/moving_variance/read"
  op: "Identity"
  input: "inverted_bottleneck1_1_0/SeparableConv2d/BatchNorm/moving_variance"
  attr {
    key: "T"
    value {
      type: DT_FLOAT
    }
  }
  attr {
    key: "_class"
    value {
      list {
        s: "loc:@inverted_bottleneck1_1_0/SeparableConv2d/BatchNorm/moving_variance"
      }
    }
  }
  attr {
    key: "_output_shapes"
    value {
      list {
        shape {
          dim {
            size: 32
          }
        }
      }
    }
  }
}
node {
  name: "Net_prediction/inverted_bottleneck1_1_0/SeparableConv2d/BatchNorm/moments/mean/reduction_indices"
  op: "Const"
  attr {
    key: "_output_shapes"
    value {
      list {
        shape {
          dim {
            size: 3
          }
        }
      }
    }
  }
  attr {
    key: "dtype"
    value {
      type: DT_INT32
    }
  }
  attr {
    key: "value"
    value {
      tensor {
        dtype: DT_INT32
        tensor_shape {
          dim {
            size: 3
          }
        }
        tensor_content: "\000\000\000\000\001\000\000\000\002\000\000\000"
      }
    }
  }
}
node {
  name: "Net_prediction/inverted_bottleneck1_1_0/SeparableConv2d/BatchNorm/moments/mean"
  op: "Mean"
  input: "Net_prediction/inverted_bottleneck1_1_0/SeparableConv2d/depthwise"
  input: "Net_prediction/inverted_bottleneck1_1_0/SeparableConv2d/BatchNorm/moments/mean/reduction_indices"
  attr {
    key: "T"
    value {
      type: DT_FLOAT
    }
  }
  attr {
    key: "Tidx"
    value {
      type: DT_INT32
    }
  }
  attr {
    key: "_output_shapes"
    value {
      list {
        shape {
          dim {
            size: 1
          }
          dim {
            size: 1
          }
          dim {
            size: 1
          }
          dim {
            size: 32
          }
        }
      }
    }
  }
  attr {
    key: "keep_dims"
    value {
      b: true
    }
  }
}
node {
  name: "Net_prediction/inverted_bottleneck1_1_0/SeparableConv2d/BatchNorm/moments/StopGradient"
  op: "StopGradient"
  input: "Net_prediction/inverted_bottleneck1_1_0/SeparableConv2d/BatchNorm/moments/mean"
  attr {
    key: "T"
    value {
      type: DT_FLOAT
    }
  }
  attr {
    key: "_output_shapes"
    value {
      list {
        shape {
          dim {
            size: 1
          }
          dim {
            size: 1
          }
          dim {
            size: 1
          }
          dim {
            size: 32
          }
        }
      }
    }
  }
}
node {
  name: "Net_prediction/inverted_bottleneck1_1_0/SeparableConv2d/BatchNorm/moments/SquaredDifference"
  op: "SquaredDifference"
  input: "Net_prediction/inverted_bottleneck1_1_0/SeparableConv2d/depthwise"
  input: "Net_prediction/inverted_bottleneck1_1_0/SeparableConv2d/BatchNorm/moments/StopGradient"
  attr {
    key: "T"
    value {
      type: DT_FLOAT
    }
  }
  attr {
    key: "_output_shapes"
    value {
      list {
        shape {
          dim {
            size: -1
          }
          dim {
            size: 300
          }
          dim {
            size: 300
          }
          dim {
            size: 32
          }
        }
      }
    }
  }
}
node {
  name: "Net_prediction/inverted_bottleneck1_1_0/SeparableConv2d/BatchNorm/moments/variance/reduction_indices"
  op: "Const"
  attr {
    key: "_output_shapes"
    value {
      list {
        shape {
          dim {
            size: 3
          }
        }
      }
    }
  }
  attr {
    key: "dtype"
    value {
      type: DT_INT32
    }
  }
  attr {
    key: "value"
    value {
      tensor {
        dtype: DT_INT32
        tensor_shape {
          dim {
            size: 3
          }
        }
        tensor_content: "\000\000\000\000\001\000\000\000\002\000\000\000"
      }
    }
  }
}
node {
  name: "Net_prediction/inverted_bottleneck1_1_0/SeparableConv2d/BatchNorm/moments/variance"
  op: "Mean"
  input: "Net_prediction/inverted_bottleneck1_1_0/SeparableConv2d/BatchNorm/moments/SquaredDifference"
  input: "Net_prediction/inverted_bottleneck1_1_0/SeparableConv2d/BatchNorm/moments/variance/reduction_indices"
  attr {
    key: "T"
    value {
      type: DT_FLOAT
    }
  }
  attr {
    key: "Tidx"
    value {
      type: DT_INT32
    }
  }
  attr {
    key: "_output_shapes"
    value {
      list {
        shape {
          dim {
            size: 1
          }
          dim {
            size: 1
          }
          dim {
            size: 1
          }
          dim {
            size: 32
          }
        }
      }
    }
  }
  attr {
    key: "keep_dims"
    value {
      b: true
    }
  }
}
node {
  name: "Net_prediction/inverted_bottleneck1_1_0/SeparableConv2d/BatchNorm/moments/Squeeze"
  op: "Squeeze"
  input: "Net_prediction/inverted_bottleneck1_1_0/SeparableConv2d/BatchNorm/moments/mean"
  attr {
    key: "T"
    value {
      type: DT_FLOAT
    }
  }
  attr {
    key: "_output_shapes"
    value {
      list {
        shape {
          dim {
            size: 32
          }
        }
      }
    }
  }
  attr {
    key: "squeeze_dims"
    value {
      list {
        i: 0
        i: 1
        i: 2
      }
    }
  }
}
node {
  name: "Net_prediction/inverted_bottleneck1_1_0/SeparableConv2d/BatchNorm/moments/Squeeze_1"
  op: "Squeeze"
  input: "Net_prediction/inverted_bottleneck1_1_0/SeparableConv2d/BatchNorm/moments/variance"
  attr {
    key: "T"
    value {
      type: DT_FLOAT
    }
  }
  attr {
    key: "_output_shapes"
    value {
      list {
        shape {
          dim {
            size: 32
          }
        }
      }
    }
  }
  attr {
    key: "squeeze_dims"
    value {
      list {
        i: 0
        i: 1
        i: 2
      }
    }
  }
}
node {
  name: "Net_prediction/inverted_bottleneck1_1_0/SeparableConv2d/BatchNorm/AssignMovingAvg/decay"
  op: "Const"
  attr {
    key: "_class"
    value {
      list {
        s: "loc:@inverted_bottleneck1_1_0/SeparableConv2d/BatchNorm/moving_mean"
      }
    }
  }
  attr {
    key: "_output_shapes"
    value {
      list {
        shape {
        }
      }
    }
  }
  attr {
    key: "dtype"
    value {
      type: DT_FLOAT
    }
  }
  attr {
    key: "value"
    value {
      tensor {
        dtype: DT_FLOAT
        tensor_shape {
        }
        float_val: 0.0010000000474974513
      }
    }
  }
}
node {
  name: "Net_prediction/inverted_bottleneck1_1_0/SeparableConv2d/BatchNorm/AssignMovingAvg/sub"
  op: "Sub"
  input: "inverted_bottleneck1_1_0/SeparableConv2d/BatchNorm/moving_mean/read"
  input: "Net_prediction/inverted_bottleneck1_1_0/SeparableConv2d/BatchNorm/moments/Squeeze"
  attr {
    key: "T"
    value {
      type: DT_FLOAT
    }
  }
  attr {
    key: "_class"
    value {
      list {
        s: "loc:@inverted_bottleneck1_1_0/SeparableConv2d/BatchNorm/moving_mean"
      }
    }
  }
  attr {
    key: "_output_shapes"
    value {
      list {
        shape {
          dim {
            size: 32
          }
        }
      }
    }
  }
}
node {
  name: "Net_prediction/inverted_bottleneck1_1_0/SeparableConv2d/BatchNorm/AssignMovingAvg/mul"
  op: "Mul"
  input: "Net_prediction/inverted_bottleneck1_1_0/SeparableConv2d/BatchNorm/AssignMovingAvg/sub"
  input: "Net_prediction/inverted_bottleneck1_1_0/SeparableConv2d/BatchNorm/AssignMovingAvg/decay"
  attr {
    key: "T"
    value {
      type: DT_FLOAT
    }
  }
  attr {
    key: "_class"
    value {
      list {
        s: "loc:@inverted_bottleneck1_1_0/SeparableConv2d/BatchNorm/moving_mean"
      }
    }
  }
  attr {
    key: "_output_shapes"
    value {
      list {
        shape {
          dim {
            size: 32
          }
        }
      }
    }
  }
}
node {
  name: "Net_prediction/inverted_bottleneck1_1_0/SeparableConv2d/BatchNorm/AssignMovingAvg"
  op: "AssignSub"
  input: "inverted_bottleneck1_1_0/SeparableConv2d/BatchNorm/moving_mean"
  input: "Net_prediction/inverted_bottleneck1_1_0/SeparableConv2d/BatchNorm/AssignMovingAvg/mul"
  attr {
    key: "T"
    value {
      type: DT_FLOAT
    }
  }
  attr {
    key: "_class"
    value {
      list {
        s: "loc:@inverted_bottleneck1_1_0/SeparableConv2d/BatchNorm/moving_mean"
      }
    }
  }
  attr {
    key: "_output_shapes"
    value {
      list {
        shape {
          dim {
            size: 32
          }
        }
      }
    }
  }
  attr {
    key: "use_locking"
    value {
      b: false
    }
  }
}
node {
  name: "Net_prediction/inverted_bottleneck1_1_0/SeparableConv2d/BatchNorm/AssignMovingAvg_1/decay"
  op: "Const"
  attr {
    key: "_class"
    value {
      list {
        s: "loc:@inverted_bottleneck1_1_0/SeparableConv2d/BatchNorm/moving_variance"
      }
    }
  }
  attr {
    key: "_output_shapes"
    value {
      list {
        shape {
        }
      }
    }
  }
  attr {
    key: "dtype"
    value {
      type: DT_FLOAT
    }
  }
  attr {
    key: "value"
    value {
      tensor {
        dtype: DT_FLOAT
        tensor_shape {
        }
        float_val: 0.0010000000474974513
      }
    }
  }
}
node {
  name: "Net_prediction/inverted_bottleneck1_1_0/SeparableConv2d/BatchNorm/AssignMovingAvg_1/sub"
  op: "Sub"
  input: "inverted_bottleneck1_1_0/SeparableConv2d/BatchNorm/moving_variance/read"
  input: "Net_prediction/inverted_bottleneck1_1_0/SeparableConv2d/BatchNorm/moments/Squeeze_1"
  attr {
    key: "T"
    value {
      type: DT_FLOAT
    }
  }
  attr {
    key: "_class"
    value {
      list {
        s: "loc:@inverted_bottleneck1_1_0/SeparableConv2d/BatchNorm/moving_variance"
      }
    }
  }
  attr {
    key: "_output_shapes"
    value {
      list {
        shape {
          dim {
            size: 32
          }
        }
      }
    }
  }
}
node {
  name: "Net_prediction/inverted_bottleneck1_1_0/SeparableConv2d/BatchNorm/AssignMovingAvg_1/mul"
  op: "Mul"
  input: "Net_prediction/inverted_bottleneck1_1_0/SeparableConv2d/BatchNorm/AssignMovingAvg_1/sub"
  input: "Net_prediction/inverted_bottleneck1_1_0/SeparableConv2d/BatchNorm/AssignMovingAvg_1/decay"
  attr {
    key: "T"
    value {
      type: DT_FLOAT
    }
  }
  attr {
    key: "_class"
    value {
      list {
        s: "loc:@inverted_bottleneck1_1_0/SeparableConv2d/BatchNorm/moving_variance"
      }
    }
  }
  attr {
    key: "_output_shapes"
    value {
      list {
        shape {
          dim {
            size: 32
          }
        }
      }
    }
  }
}
node {
  name: "Net_prediction/inverted_bottleneck1_1_0/SeparableConv2d/BatchNorm/AssignMovingAvg_1"
  op: "AssignSub"
  input: "inverted_bottleneck1_1_0/SeparableConv2d/BatchNorm/moving_variance"
  input: "Net_prediction/inverted_bottleneck1_1_0/SeparableConv2d/BatchNorm/AssignMovingAvg_1/mul"
  attr {
    key: "T"
    value {
      type: DT_FLOAT
    }
  }
  attr {
    key: "_class"
    value {
      list {
        s: "loc:@inverted_bottleneck1_1_0/SeparableConv2d/BatchNorm/moving_variance"
      }
    }
  }
  attr {
    key: "_output_shapes"
    value {
      list {
        shape {
          dim {
            size: 32
          }
        }
      }
    }
  }
  attr {
    key: "use_locking"
    value {
      b: false
    }
  }
}
node {
  name: "Net_prediction/inverted_bottleneck1_1_0/SeparableConv2d/BatchNorm/batchnorm/add/y"
  op: "Const"
  attr {
    key: "_output_shapes"
    value {
      list {
        shape {
        }
      }
    }
  }
  attr {
    key: "dtype"
    value {
      type: DT_FLOAT
    }
  }
  attr {
    key: "value"
    value {
      tensor {
        dtype: DT_FLOAT
        tensor_shape {
        }
        float_val: 0.0010000000474974513
      }
    }
  }
}
node {
  name: "Net_prediction/inverted_bottleneck1_1_0/SeparableConv2d/BatchNorm/batchnorm/add"
  op: "Add"
  input: "Net_prediction/inverted_bottleneck1_1_0/SeparableConv2d/BatchNorm/moments/Squeeze_1"
  input: "Net_prediction/inverted_bottleneck1_1_0/SeparableConv2d/BatchNorm/batchnorm/add/y"
  attr {
    key: "T"
    value {
      type: DT_FLOAT
    }
  }
  attr {
    key: "_output_shapes"
    value {
      list {
        shape {
          dim {
            size: 32
          }
        }
      }
    }
  }
}
node {
  name: "Net_prediction/inverted_bottleneck1_1_0/SeparableConv2d/BatchNorm/batchnorm/Rsqrt"
  op: "Rsqrt"
  input: "Net_prediction/inverted_bottleneck1_1_0/SeparableConv2d/BatchNorm/batchnorm/add"
  attr {
    key: "T"
    value {
      type: DT_FLOAT
    }
  }
  attr {
    key: "_output_shapes"
    value {
      list {
        shape {
          dim {
            size: 32
          }
        }
      }
    }
  }
}
node {
  name: "Net_prediction/inverted_bottleneck1_1_0/SeparableConv2d/BatchNorm/batchnorm/mul"
  op: "Mul"
  input: "Net_prediction/inverted_bottleneck1_1_0/SeparableConv2d/depthwise"
  input: "Net_prediction/inverted_bottleneck1_1_0/SeparableConv2d/BatchNorm/batchnorm/Rsqrt"
  attr {
    key: "T"
    value {
      type: DT_FLOAT
    }
  }
  attr {
    key: "_output_shapes"
    value {
      list {
        shape {
          dim {
            size: -1
          }
          dim {
            size: 300
          }
          dim {
            size: 300
          }
          dim {
            size: 32
          }
        }
      }
    }
  }
}
node {
  name: "Net_prediction/inverted_bottleneck1_1_0/SeparableConv2d/BatchNorm/batchnorm/mul_1"
  op: "Mul"
  input: "Net_prediction/inverted_bottleneck1_1_0/SeparableConv2d/BatchNorm/moments/Squeeze"
  input: "Net_prediction/inverted_bottleneck1_1_0/SeparableConv2d/BatchNorm/batchnorm/Rsqrt"
  attr {
    key: "T"
    value {
      type: DT_FLOAT
    }
  }
  attr {
    key: "_output_shapes"
    value {
      list {
        shape {
          dim {
            size: 32
          }
        }
      }
    }
  }
}
node {
  name: "Net_prediction/inverted_bottleneck1_1_0/SeparableConv2d/BatchNorm/batchnorm/sub"
  op: "Sub"
  input: "inverted_bottleneck1_1_0/SeparableConv2d/BatchNorm/beta/read"
  input: "Net_prediction/inverted_bottleneck1_1_0/SeparableConv2d/BatchNorm/batchnorm/mul_1"
  attr {
    key: "T"
    value {
      type: DT_FLOAT
    }
  }
  attr {
    key: "_output_shapes"
    value {
      list {
        shape {
          dim {
            size: 32
          }
        }
      }
    }
  }
}
node {
  name: "Net_prediction/inverted_bottleneck1_1_0/SeparableConv2d/BatchNorm/batchnorm/add_1"
  op: "Add"
  input: "Net_prediction/inverted_bottleneck1_1_0/SeparableConv2d/BatchNorm/batchnorm/mul"
  input: "Net_prediction/inverted_bottleneck1_1_0/SeparableConv2d/BatchNorm/batchnorm/sub"
  attr {
    key: "T"
    value {
      type: DT_FLOAT
    }
  }
  attr {
    key: "_output_shapes"
    value {
      list {
        shape {
          dim {
            size: -1
          }
          dim {
            size: 300
          }
          dim {
            size: 300
          }
          dim {
            size: 32
          }
        }
      }
    }
  }
}
node {
  name: "Net_prediction/inverted_bottleneck1_1_0/SeparableConv2d/Relu6"
  op: "Relu6"
  input: "Net_prediction/inverted_bottleneck1_1_0/SeparableConv2d/BatchNorm/batchnorm/add_1"
  attr {
    key: "T"
    value {
      type: DT_FLOAT
    }
  }
  attr {
    key: "_output_shapes"
    value {
      list {
        shape {
          dim {
            size: -1
          }
          dim {
            size: 300
          }
          dim {
            size: 300
          }
          dim {
            size: 32
          }
        }
      }
    }
  }
}
node {
  name: "inverted_bottleneck1_1_0/Conv_1/weights/Initializer/random_uniform/shape"
  op: "Const"
  attr {
    key: "_class"
    value {
      list {
        s: "loc:@inverted_bottleneck1_1_0/Conv_1/weights"
      }
    }
  }
  attr {
    key: "_output_shapes"
    value {
      list {
        shape {
          dim {
            size: 4
          }
        }
      }
    }
  }
  attr {
    key: "dtype"
    value {
      type: DT_INT32
    }
  }
  attr {
    key: "value"
    value {
      tensor {
        dtype: DT_INT32
        tensor_shape {
          dim {
            size: 4
          }
        }
        tensor_content: "\001\000\000\000\001\000\000\000 \000\000\000\020\000\000\000"
      }
    }
  }
}
node {
  name: "inverted_bottleneck1_1_0/Conv_1/weights/Initializer/random_uniform/min"
  op: "Const"
  attr {
    key: "_class"
    value {
      list {
        s: "loc:@inverted_bottleneck1_1_0/Conv_1/weights"
      }
    }
  }
  attr {
    key: "_output_shapes"
    value {
      list {
        shape {
        }
      }
    }
  }
  attr {
    key: "dtype"
    value {
      type: DT_FLOAT
    }
  }
  attr {
    key: "value"
    value {
      tensor {
        dtype: DT_FLOAT
        tensor_shape {
        }
        float_val: -0.3535533845424652
      }
    }
  }
}
node {
  name: "inverted_bottleneck1_1_0/Conv_1/weights/Initializer/random_uniform/max"
  op: "Const"
  attr {
    key: "_class"
    value {
      list {
        s: "loc:@inverted_bottleneck1_1_0/Conv_1/weights"
      }
    }
  }
  attr {
    key: "_output_shapes"
    value {
      list {
        shape {
        }
      }
    }
  }
  attr {
    key: "dtype"
    value {
      type: DT_FLOAT
    }
  }
  attr {
    key: "value"
    value {
      tensor {
        dtype: DT_FLOAT
        tensor_shape {
        }
        float_val: 0.3535533845424652
      }
    }
  }
}
node {
  name: "inverted_bottleneck1_1_0/Conv_1/weights/Initializer/random_uniform/RandomUniform"
  op: "RandomUniform"
  input: "inverted_bottleneck1_1_0/Conv_1/weights/Initializer/random_uniform/shape"
  attr {
    key: "T"
    value {
      type: DT_INT32
    }
  }
  attr {
    key: "_class"
    value {
      list {
        s: "loc:@inverted_bottleneck1_1_0/Conv_1/weights"
      }
    }
  }
  attr {
    key: "_output_shapes"
    value {
      list {
        shape {
          dim {
            size: 1
          }
          dim {
            size: 1
          }
          dim {
            size: 32
          }
          dim {
            size: 16
          }
        }
      }
    }
  }
  attr {
    key: "dtype"
    value {
      type: DT_FLOAT
    }
  }
  attr {
    key: "seed"
    value {
      i: 0
    }
  }
  attr {
    key: "seed2"
    value {
      i: 0
    }
  }
}
node {
  name: "inverted_bottleneck1_1_0/Conv_1/weights/Initializer/random_uniform/sub"
  op: "Sub"
  input: "inverted_bottleneck1_1_0/Conv_1/weights/Initializer/random_uniform/max"
  input: "inverted_bottleneck1_1_0/Conv_1/weights/Initializer/random_uniform/min"
  attr {
    key: "T"
    value {
      type: DT_FLOAT
    }
  }
  attr {
    key: "_class"
    value {
      list {
        s: "loc:@inverted_bottleneck1_1_0/Conv_1/weights"
      }
    }
  }
  attr {
    key: "_output_shapes"
    value {
      list {
        shape {
        }
      }
    }
  }
}
node {
  name: "inverted_bottleneck1_1_0/Conv_1/weights/Initializer/random_uniform/mul"
  op: "Mul"
  input: "inverted_bottleneck1_1_0/Conv_1/weights/Initializer/random_uniform/RandomUniform"
  input: "inverted_bottleneck1_1_0/Conv_1/weights/Initializer/random_uniform/sub"
  attr {
    key: "T"
    value {
      type: DT_FLOAT
    }
  }
  attr {
    key: "_class"
    value {
      list {
        s: "loc:@inverted_bottleneck1_1_0/Conv_1/weights"
      }
    }
  }
  attr {
    key: "_output_shapes"
    value {
      list {
        shape {
          dim {
            size: 1
          }
          dim {
            size: 1
          }
          dim {
            size: 32
          }
          dim {
            size: 16
          }
        }
      }
    }
  }
}
node {
  name: "inverted_bottleneck1_1_0/Conv_1/weights/Initializer/random_uniform"
  op: "Add"
  input: "inverted_bottleneck1_1_0/Conv_1/weights/Initializer/random_uniform/mul"
  input: "inverted_bottleneck1_1_0/Conv_1/weights/Initializer/random_uniform/min"
  attr {
    key: "T"
    value {
      type: DT_FLOAT
    }
  }
  attr {
    key: "_class"
    value {
      list {
        s: "loc:@inverted_bottleneck1_1_0/Conv_1/weights"
      }
    }
  }
  attr {
    key: "_output_shapes"
    value {
      list {
        shape {
          dim {
            size: 1
          }
          dim {
            size: 1
          }
          dim {
            size: 32
          }
          dim {
            size: 16
          }
        }
      }
    }
  }
}
node {
  name: "inverted_bottleneck1_1_0/Conv_1/weights"
  op: "VariableV2"
  attr {
    key: "_class"
    value {
      list {
        s: "loc:@inverted_bottleneck1_1_0/Conv_1/weights"
      }
    }
  }
  attr {
    key: "_output_shapes"
    value {
      list {
        shape {
          dim {
            size: 1
          }
          dim {
            size: 1
          }
          dim {
            size: 32
          }
          dim {
            size: 16
          }
        }
      }
    }
  }
  attr {
    key: "container"
    value {
      s: ""
    }
  }
  attr {
    key: "dtype"
    value {
      type: DT_FLOAT
    }
  }
  attr {
    key: "shape"
    value {
      shape {
        dim {
          size: 1
        }
        dim {
          size: 1
        }
        dim {
          size: 32
        }
        dim {
          size: 16
        }
      }
    }
  }
  attr {
    key: "shared_name"
    value {
      s: ""
    }
  }
}
node {
  name: "inverted_bottleneck1_1_0/Conv_1/weights/Assign"
  op: "Assign"
  input: "inverted_bottleneck1_1_0/Conv_1/weights"
  input: "inverted_bottleneck1_1_0/Conv_1/weights/Initializer/random_uniform"
  attr {
    key: "T"
    value {
      type: DT_FLOAT
    }
  }
  attr {
    key: "_class"
    value {
      list {
        s: "loc:@inverted_bottleneck1_1_0/Conv_1/weights"
      }
    }
  }
  attr {
    key: "_output_shapes"
    value {
      list {
        shape {
          dim {
            size: 1
          }
          dim {
            size: 1
          }
          dim {
            size: 32
          }
          dim {
            size: 16
          }
        }
      }
    }
  }
  attr {
    key: "use_locking"
    value {
      b: true
    }
  }
  attr {
    key: "validate_shape"
    value {
      b: true
    }
  }
}
node {
  name: "inverted_bottleneck1_1_0/Conv_1/weights/read"
  op: "Identity"
  input: "inverted_bottleneck1_1_0/Conv_1/weights"
  attr {
    key: "T"
    value {
      type: DT_FLOAT
    }
  }
  attr {
    key: "_class"
    value {
      list {
        s: "loc:@inverted_bottleneck1_1_0/Conv_1/weights"
      }
    }
  }
  attr {
    key: "_output_shapes"
    value {
      list {
        shape {
          dim {
            size: 1
          }
          dim {
            size: 1
          }
          dim {
            size: 32
          }
          dim {
            size: 16
          }
        }
      }
    }
  }
}
node {
  name: "Net_prediction/inverted_bottleneck1_1_0/Conv_1/convolution/Shape"
  op: "Const"
  attr {
    key: "_output_shapes"
    value {
      list {
        shape {
          dim {
            size: 4
          }
        }
      }
    }
  }
  attr {
    key: "dtype"
    value {
      type: DT_INT32
    }
  }
  attr {
    key: "value"
    value {
      tensor {
        dtype: DT_INT32
        tensor_shape {
          dim {
            size: 4
          }
        }
        tensor_content: "\001\000\000\000\001\000\000\000 \000\000\000\020\000\000\000"
      }
    }
  }
}
node {
  name: "Net_prediction/inverted_bottleneck1_1_0/Conv_1/convolution/dilation_rate"
  op: "Const"
  attr {
    key: "_output_shapes"
    value {
      list {
        shape {
          dim {
            size: 2
          }
        }
      }
    }
  }
  attr {
    key: "dtype"
    value {
      type: DT_INT32
    }
  }
  attr {
    key: "value"
    value {
      tensor {
        dtype: DT_INT32
        tensor_shape {
          dim {
            size: 2
          }
        }
        tensor_content: "\001\000\000\000\001\000\000\000"
      }
    }
  }
}
node {
  name: "Net_prediction/inverted_bottleneck1_1_0/Conv_1/convolution"
  op: "Conv2D"
  input: "Net_prediction/inverted_bottleneck1_1_0/SeparableConv2d/Relu6"
  input: "inverted_bottleneck1_1_0/Conv_1/weights/read"
  attr {
    key: "T"
    value {
      type: DT_FLOAT
    }
  }
  attr {
    key: "_output_shapes"
    value {
      list {
        shape {
          dim {
            size: -1
          }
          dim {
            size: 300
          }
          dim {
            size: 300
          }
          dim {
            size: 16
          }
        }
      }
    }
  }
  attr {
    key: "data_format"
    value {
      s: "NHWC"
    }
  }
  attr {
    key: "padding"
    value {
      s: "SAME"
    }
  }
  attr {
    key: "strides"
    value {
      list {
        i: 1
        i: 1
        i: 1
        i: 1
      }
    }
  }
  attr {
    key: "use_cudnn_on_gpu"
    value {
      b: true
    }
  }
}
node {
  name: "inverted_bottleneck1_1_0/Conv_1/BatchNorm/beta/Initializer/zeros"
  op: "Const"
  attr {
    key: "_class"
    value {
      list {
        s: "loc:@inverted_bottleneck1_1_0/Conv_1/BatchNorm/beta"
      }
    }
  }
  attr {
    key: "_output_shapes"
    value {
      list {
        shape {
          dim {
            size: 16
          }
        }
      }
    }
  }
  attr {
    key: "dtype"
    value {
      type: DT_FLOAT
    }
  }
  attr {
    key: "value"
    value {
      tensor {
        dtype: DT_FLOAT
        tensor_shape {
          dim {
            size: 16
          }
        }
        float_val: 0.0
      }
    }
  }
}
node {
  name: "inverted_bottleneck1_1_0/Conv_1/BatchNorm/beta"
  op: "VariableV2"
  attr {
    key: "_class"
    value {
      list {
        s: "loc:@inverted_bottleneck1_1_0/Conv_1/BatchNorm/beta"
      }
    }
  }
  attr {
    key: "_output_shapes"
    value {
      list {
        shape {
          dim {
            size: 16
          }
        }
      }
    }
  }
  attr {
    key: "container"
    value {
      s: ""
    }
  }
  attr {
    key: "dtype"
    value {
      type: DT_FLOAT
    }
  }
  attr {
    key: "shape"
    value {
      shape {
        dim {
          size: 16
        }
      }
    }
  }
  attr {
    key: "shared_name"
    value {
      s: ""
    }
  }
}
node {
  name: "inverted_bottleneck1_1_0/Conv_1/BatchNorm/beta/Assign"
  op: "Assign"
  input: "inverted_bottleneck1_1_0/Conv_1/BatchNorm/beta"
  input: "inverted_bottleneck1_1_0/Conv_1/BatchNorm/beta/Initializer/zeros"
  attr {
    key: "T"
    value {
      type: DT_FLOAT
    }
  }
  attr {
    key: "_class"
    value {
      list {
        s: "loc:@inverted_bottleneck1_1_0/Conv_1/BatchNorm/beta"
      }
    }
  }
  attr {
    key: "_output_shapes"
    value {
      list {
        shape {
          dim {
            size: 16
          }
        }
      }
    }
  }
  attr {
    key: "use_locking"
    value {
      b: true
    }
  }
  attr {
    key: "validate_shape"
    value {
      b: true
    }
  }
}
node {
  name: "inverted_bottleneck1_1_0/Conv_1/BatchNorm/beta/read"
  op: "Identity"
  input: "inverted_bottleneck1_1_0/Conv_1/BatchNorm/beta"
  attr {
    key: "T"
    value {
      type: DT_FLOAT
    }
  }
  attr {
    key: "_class"
    value {
      list {
        s: "loc:@inverted_bottleneck1_1_0/Conv_1/BatchNorm/beta"
      }
    }
  }
  attr {
    key: "_output_shapes"
    value {
      list {
        shape {
          dim {
            size: 16
          }
        }
      }
    }
  }
}
node {
  name: "inverted_bottleneck1_1_0/Conv_1/BatchNorm/moving_mean/Initializer/zeros"
  op: "Const"
  attr {
    key: "_class"
    value {
      list {
        s: "loc:@inverted_bottleneck1_1_0/Conv_1/BatchNorm/moving_mean"
      }
    }
  }
  attr {
    key: "_output_shapes"
    value {
      list {
        shape {
          dim {
            size: 16
          }
        }
      }
    }
  }
  attr {
    key: "dtype"
    value {
      type: DT_FLOAT
    }
  }
  attr {
    key: "value"
    value {
      tensor {
        dtype: DT_FLOAT
        tensor_shape {
          dim {
            size: 16
          }
        }
        float_val: 0.0
      }
    }
  }
}
node {
  name: "inverted_bottleneck1_1_0/Conv_1/BatchNorm/moving_mean"
  op: "VariableV2"
  attr {
    key: "_class"
    value {
      list {
        s: "loc:@inverted_bottleneck1_1_0/Conv_1/BatchNorm/moving_mean"
      }
    }
  }
  attr {
    key: "_output_shapes"
    value {
      list {
        shape {
          dim {
            size: 16
          }
        }
      }
    }
  }
  attr {
    key: "container"
    value {
      s: ""
    }
  }
  attr {
    key: "dtype"
    value {
      type: DT_FLOAT
    }
  }
  attr {
    key: "shape"
    value {
      shape {
        dim {
          size: 16
        }
      }
    }
  }
  attr {
    key: "shared_name"
    value {
      s: ""
    }
  }
}
node {
  name: "inverted_bottleneck1_1_0/Conv_1/BatchNorm/moving_mean/Assign"
  op: "Assign"
  input: "inverted_bottleneck1_1_0/Conv_1/BatchNorm/moving_mean"
  input: "inverted_bottleneck1_1_0/Conv_1/BatchNorm/moving_mean/Initializer/zeros"
  attr {
    key: "T"
    value {
      type: DT_FLOAT
    }
  }
  attr {
    key: "_class"
    value {
      list {
        s: "loc:@inverted_bottleneck1_1_0/Conv_1/BatchNorm/moving_mean"
      }
    }
  }
  attr {
    key: "_output_shapes"
    value {
      list {
        shape {
          dim {
            size: 16
          }
        }
      }
    }
  }
  attr {
    key: "use_locking"
    value {
      b: true
    }
  }
  attr {
    key: "validate_shape"
    value {
      b: true
    }
  }
}
node {
  name: "inverted_bottleneck1_1_0/Conv_1/BatchNorm/moving_mean/read"
  op: "Identity"
  input: "inverted_bottleneck1_1_0/Conv_1/BatchNorm/moving_mean"
  attr {
    key: "T"
    value {
      type: DT_FLOAT
    }
  }
  attr {
    key: "_class"
    value {
      list {
        s: "loc:@inverted_bottleneck1_1_0/Conv_1/BatchNorm/moving_mean"
      }
    }
  }
  attr {
    key: "_output_shapes"
    value {
      list {
        shape {
          dim {
            size: 16
          }
        }
      }
    }
  }
}
node {
  name: "inverted_bottleneck1_1_0/Conv_1/BatchNorm/moving_variance/Initializer/ones"
  op: "Const"
  attr {
    key: "_class"
    value {
      list {
        s: "loc:@inverted_bottleneck1_1_0/Conv_1/BatchNorm/moving_variance"
      }
    }
  }
  attr {
    key: "_output_shapes"
    value {
      list {
        shape {
          dim {
            size: 16
          }
        }
      }
    }
  }
  attr {
    key: "dtype"
    value {
      type: DT_FLOAT
    }
  }
  attr {
    key: "value"
    value {
      tensor {
        dtype: DT_FLOAT
        tensor_shape {
          dim {
            size: 16
          }
        }
        float_val: 1.0
      }
    }
  }
}
node {
  name: "inverted_bottleneck1_1_0/Conv_1/BatchNorm/moving_variance"
  op: "VariableV2"
  attr {
    key: "_class"
    value {
      list {
        s: "loc:@inverted_bottleneck1_1_0/Conv_1/BatchNorm/moving_variance"
      }
    }
  }
  attr {
    key: "_output_shapes"
    value {
      list {
        shape {
          dim {
            size: 16
          }
        }
      }
    }
  }
  attr {
    key: "container"
    value {
      s: ""
    }
  }
  attr {
    key: "dtype"
    value {
      type: DT_FLOAT
    }
  }
  attr {
    key: "shape"
    value {
      shape {
        dim {
          size: 16
        }
      }
    }
  }
  attr {
    key: "shared_name"
    value {
      s: ""
    }
  }
}
node {
  name: "inverted_bottleneck1_1_0/Conv_1/BatchNorm/moving_variance/Assign"
  op: "Assign"
  input: "inverted_bottleneck1_1_0/Conv_1/BatchNorm/moving_variance"
  input: "inverted_bottleneck1_1_0/Conv_1/BatchNorm/moving_variance/Initializer/ones"
  attr {
    key: "T"
    value {
      type: DT_FLOAT
    }
  }
  attr {
    key: "_class"
    value {
      list {
        s: "loc:@inverted_bottleneck1_1_0/Conv_1/BatchNorm/moving_variance"
      }
    }
  }
  attr {
    key: "_output_shapes"
    value {
      list {
        shape {
          dim {
            size: 16
          }
        }
      }
    }
  }
  attr {
    key: "use_locking"
    value {
      b: true
    }
  }
  attr {
    key: "validate_shape"
    value {
      b: true
    }
  }
}
node {
  name: "inverted_bottleneck1_1_0/Conv_1/BatchNorm/moving_variance/read"
  op: "Identity"
  input: "inverted_bottleneck1_1_0/Conv_1/BatchNorm/moving_variance"
  attr {
    key: "T"
    value {
      type: DT_FLOAT
    }
  }
  attr {
    key: "_class"
    value {
      list {
        s: "loc:@inverted_bottleneck1_1_0/Conv_1/BatchNorm/moving_variance"
      }
    }
  }
  attr {
    key: "_output_shapes"
    value {
      list {
        shape {
          dim {
            size: 16
          }
        }
      }
    }
  }
}
node {
  name: "Net_prediction/inverted_bottleneck1_1_0/Conv_1/BatchNorm/moments/mean/reduction_indices"
  op: "Const"
  attr {
    key: "_output_shapes"
    value {
      list {
        shape {
          dim {
            size: 3
          }
        }
      }
    }
  }
  attr {
    key: "dtype"
    value {
      type: DT_INT32
    }
  }
  attr {
    key: "value"
    value {
      tensor {
        dtype: DT_INT32
        tensor_shape {
          dim {
            size: 3
          }
        }
        tensor_content: "\000\000\000\000\001\000\000\000\002\000\000\000"
      }
    }
  }
}
node {
  name: "Net_prediction/inverted_bottleneck1_1_0/Conv_1/BatchNorm/moments/mean"
  op: "Mean"
  input: "Net_prediction/inverted_bottleneck1_1_0/Conv_1/convolution"
  input: "Net_prediction/inverted_bottleneck1_1_0/Conv_1/BatchNorm/moments/mean/reduction_indices"
  attr {
    key: "T"
    value {
      type: DT_FLOAT
    }
  }
  attr {
    key: "Tidx"
    value {
      type: DT_INT32
    }
  }
  attr {
    key: "_output_shapes"
    value {
      list {
        shape {
          dim {
            size: 1
          }
          dim {
            size: 1
          }
          dim {
            size: 1
          }
          dim {
            size: 16
          }
        }
      }
    }
  }
  attr {
    key: "keep_dims"
    value {
      b: true
    }
  }
}
node {
  name: "Net_prediction/inverted_bottleneck1_1_0/Conv_1/BatchNorm/moments/StopGradient"
  op: "StopGradient"
  input: "Net_prediction/inverted_bottleneck1_1_0/Conv_1/BatchNorm/moments/mean"
  attr {
    key: "T"
    value {
      type: DT_FLOAT
    }
  }
  attr {
    key: "_output_shapes"
    value {
      list {
        shape {
          dim {
            size: 1
          }
          dim {
            size: 1
          }
          dim {
            size: 1
          }
          dim {
            size: 16
          }
        }
      }
    }
  }
}
node {
  name: "Net_prediction/inverted_bottleneck1_1_0/Conv_1/BatchNorm/moments/SquaredDifference"
  op: "SquaredDifference"
  input: "Net_prediction/inverted_bottleneck1_1_0/Conv_1/convolution"
  input: "Net_prediction/inverted_bottleneck1_1_0/Conv_1/BatchNorm/moments/StopGradient"
  attr {
    key: "T"
    value {
      type: DT_FLOAT
    }
  }
  attr {
    key: "_output_shapes"
    value {
      list {
        shape {
          dim {
            size: -1
          }
          dim {
            size: 300
          }
          dim {
            size: 300
          }
          dim {
            size: 16
          }
        }
      }
    }
  }
}
node {
  name: "Net_prediction/inverted_bottleneck1_1_0/Conv_1/BatchNorm/moments/variance/reduction_indices"
  op: "Const"
  attr {
    key: "_output_shapes"
    value {
      list {
        shape {
          dim {
            size: 3
          }
        }
      }
    }
  }
  attr {
    key: "dtype"
    value {
      type: DT_INT32
    }
  }
  attr {
    key: "value"
    value {
      tensor {
        dtype: DT_INT32
        tensor_shape {
          dim {
            size: 3
          }
        }
        tensor_content: "\000\000\000\000\001\000\000\000\002\000\000\000"
      }
    }
  }
}
node {
  name: "Net_prediction/inverted_bottleneck1_1_0/Conv_1/BatchNorm/moments/variance"
  op: "Mean"
  input: "Net_prediction/inverted_bottleneck1_1_0/Conv_1/BatchNorm/moments/SquaredDifference"
  input: "Net_prediction/inverted_bottleneck1_1_0/Conv_1/BatchNorm/moments/variance/reduction_indices"
  attr {
    key: "T"
    value {
      type: DT_FLOAT
    }
  }
  attr {
    key: "Tidx"
    value {
      type: DT_INT32
    }
  }
  attr {
    key: "_output_shapes"
    value {
      list {
        shape {
          dim {
            size: 1
          }
          dim {
            size: 1
          }
          dim {
            size: 1
          }
          dim {
            size: 16
          }
        }
      }
    }
  }
  attr {
    key: "keep_dims"
    value {
      b: true
    }
  }
}
node {
  name: "Net_prediction/inverted_bottleneck1_1_0/Conv_1/BatchNorm/moments/Squeeze"
  op: "Squeeze"
  input: "Net_prediction/inverted_bottleneck1_1_0/Conv_1/BatchNorm/moments/mean"
  attr {
    key: "T"
    value {
      type: DT_FLOAT
    }
  }
  attr {
    key: "_output_shapes"
    value {
      list {
        shape {
          dim {
            size: 16
          }
        }
      }
    }
  }
  attr {
    key: "squeeze_dims"
    value {
      list {
        i: 0
        i: 1
        i: 2
      }
    }
  }
}
node {
  name: "Net_prediction/inverted_bottleneck1_1_0/Conv_1/BatchNorm/moments/Squeeze_1"
  op: "Squeeze"
  input: "Net_prediction/inverted_bottleneck1_1_0/Conv_1/BatchNorm/moments/variance"
  attr {
    key: "T"
    value {
      type: DT_FLOAT
    }
  }
  attr {
    key: "_output_shapes"
    value {
      list {
        shape {
          dim {
            size: 16
          }
        }
      }
    }
  }
  attr {
    key: "squeeze_dims"
    value {
      list {
        i: 0
        i: 1
        i: 2
      }
    }
  }
}
node {
  name: "Net_prediction/inverted_bottleneck1_1_0/Conv_1/BatchNorm/AssignMovingAvg/decay"
  op: "Const"
  attr {
    key: "_class"
    value {
      list {
        s: "loc:@inverted_bottleneck1_1_0/Conv_1/BatchNorm/moving_mean"
      }
    }
  }
  attr {
    key: "_output_shapes"
    value {
      list {
        shape {
        }
      }
    }
  }
  attr {
    key: "dtype"
    value {
      type: DT_FLOAT
    }
  }
  attr {
    key: "value"
    value {
      tensor {
        dtype: DT_FLOAT
        tensor_shape {
        }
        float_val: 0.0010000000474974513
      }
    }
  }
}
node {
  name: "Net_prediction/inverted_bottleneck1_1_0/Conv_1/BatchNorm/AssignMovingAvg/sub"
  op: "Sub"
  input: "inverted_bottleneck1_1_0/Conv_1/BatchNorm/moving_mean/read"
  input: "Net_prediction/inverted_bottleneck1_1_0/Conv_1/BatchNorm/moments/Squeeze"
  attr {
    key: "T"
    value {
      type: DT_FLOAT
    }
  }
  attr {
    key: "_class"
    value {
      list {
        s: "loc:@inverted_bottleneck1_1_0/Conv_1/BatchNorm/moving_mean"
      }
    }
  }
  attr {
    key: "_output_shapes"
    value {
      list {
        shape {
          dim {
            size: 16
          }
        }
      }
    }
  }
}
node {
  name: "Net_prediction/inverted_bottleneck1_1_0/Conv_1/BatchNorm/AssignMovingAvg/mul"
  op: "Mul"
  input: "Net_prediction/inverted_bottleneck1_1_0/Conv_1/BatchNorm/AssignMovingAvg/sub"
  input: "Net_prediction/inverted_bottleneck1_1_0/Conv_1/BatchNorm/AssignMovingAvg/decay"
  attr {
    key: "T"
    value {
      type: DT_FLOAT
    }
  }
  attr {
    key: "_class"
    value {
      list {
        s: "loc:@inverted_bottleneck1_1_0/Conv_1/BatchNorm/moving_mean"
      }
    }
  }
  attr {
    key: "_output_shapes"
    value {
      list {
        shape {
          dim {
            size: 16
          }
        }
      }
    }
  }
}
node {
  name: "Net_prediction/inverted_bottleneck1_1_0/Conv_1/BatchNorm/AssignMovingAvg"
  op: "AssignSub"
  input: "inverted_bottleneck1_1_0/Conv_1/BatchNorm/moving_mean"
  input: "Net_prediction/inverted_bottleneck1_1_0/Conv_1/BatchNorm/AssignMovingAvg/mul"
  attr {
    key: "T"
    value {
      type: DT_FLOAT
    }
  }
  attr {
    key: "_class"
    value {
      list {
        s: "loc:@inverted_bottleneck1_1_0/Conv_1/BatchNorm/moving_mean"
      }
    }
  }
  attr {
    key: "_output_shapes"
    value {
      list {
        shape {
          dim {
            size: 16
          }
        }
      }
    }
  }
  attr {
    key: "use_locking"
    value {
      b: false
    }
  }
}
node {
  name: "Net_prediction/inverted_bottleneck1_1_0/Conv_1/BatchNorm/AssignMovingAvg_1/decay"
  op: "Const"
  attr {
    key: "_class"
    value {
      list {
        s: "loc:@inverted_bottleneck1_1_0/Conv_1/BatchNorm/moving_variance"
      }
    }
  }
  attr {
    key: "_output_shapes"
    value {
      list {
        shape {
        }
      }
    }
  }
  attr {
    key: "dtype"
    value {
      type: DT_FLOAT
    }
  }
  attr {
    key: "value"
    value {
      tensor {
        dtype: DT_FLOAT
        tensor_shape {
        }
        float_val: 0.0010000000474974513
      }
    }
  }
}
node {
  name: "Net_prediction/inverted_bottleneck1_1_0/Conv_1/BatchNorm/AssignMovingAvg_1/sub"
  op: "Sub"
  input: "inverted_bottleneck1_1_0/Conv_1/BatchNorm/moving_variance/read"
  input: "Net_prediction/inverted_bottleneck1_1_0/Conv_1/BatchNorm/moments/Squeeze_1"
  attr {
    key: "T"
    value {
      type: DT_FLOAT
    }
  }
  attr {
    key: "_class"
    value {
      list {
        s: "loc:@inverted_bottleneck1_1_0/Conv_1/BatchNorm/moving_variance"
      }
    }
  }
  attr {
    key: "_output_shapes"
    value {
      list {
        shape {
          dim {
            size: 16
          }
        }
      }
    }
  }
}
node {
  name: "Net_prediction/inverted_bottleneck1_1_0/Conv_1/BatchNorm/AssignMovingAvg_1/mul"
  op: "Mul"
  input: "Net_prediction/inverted_bottleneck1_1_0/Conv_1/BatchNorm/AssignMovingAvg_1/sub"
  input: "Net_prediction/inverted_bottleneck1_1_0/Conv_1/BatchNorm/AssignMovingAvg_1/decay"
  attr {
    key: "T"
    value {
      type: DT_FLOAT
    }
  }
  attr {
    key: "_class"
    value {
      list {
        s: "loc:@inverted_bottleneck1_1_0/Conv_1/BatchNorm/moving_variance"
      }
    }
  }
  attr {
    key: "_output_shapes"
    value {
      list {
        shape {
          dim {
            size: 16
          }
        }
      }
    }
  }
}
node {
  name: "Net_prediction/inverted_bottleneck1_1_0/Conv_1/BatchNorm/AssignMovingAvg_1"
  op: "AssignSub"
  input: "inverted_bottleneck1_1_0/Conv_1/BatchNorm/moving_variance"
  input: "Net_prediction/inverted_bottleneck1_1_0/Conv_1/BatchNorm/AssignMovingAvg_1/mul"
  attr {
    key: "T"
    value {
      type: DT_FLOAT
    }
  }
  attr {
    key: "_class"
    value {
      list {
        s: "loc:@inverted_bottleneck1_1_0/Conv_1/BatchNorm/moving_variance"
      }
    }
  }
  attr {
    key: "_output_shapes"
    value {
      list {
        shape {
          dim {
            size: 16
          }
        }
      }
    }
  }
  attr {
    key: "use_locking"
    value {
      b: false
    }
  }
}
node {
  name: "Net_prediction/inverted_bottleneck1_1_0/Conv_1/BatchNorm/batchnorm/add/y"
  op: "Const"
  attr {
    key: "_output_shapes"
    value {
      list {
        shape {
        }
      }
    }
  }
  attr {
    key: "dtype"
    value {
      type: DT_FLOAT
    }
  }
  attr {
    key: "value"
    value {
      tensor {
        dtype: DT_FLOAT
        tensor_shape {
        }
        float_val: 0.0010000000474974513
      }
    }
  }
}
node {
  name: "Net_prediction/inverted_bottleneck1_1_0/Conv_1/BatchNorm/batchnorm/add"
  op: "Add"
  input: "Net_prediction/inverted_bottleneck1_1_0/Conv_1/BatchNorm/moments/Squeeze_1"
  input: "Net_prediction/inverted_bottleneck1_1_0/Conv_1/BatchNorm/batchnorm/add/y"
  attr {
    key: "T"
    value {
      type: DT_FLOAT
    }
  }
  attr {
    key: "_output_shapes"
    value {
      list {
        shape {
          dim {
            size: 16
          }
        }
      }
    }
  }
}
node {
  name: "Net_prediction/inverted_bottleneck1_1_0/Conv_1/BatchNorm/batchnorm/Rsqrt"
  op: "Rsqrt"
  input: "Net_prediction/inverted_bottleneck1_1_0/Conv_1/BatchNorm/batchnorm/add"
  attr {
    key: "T"
    value {
      type: DT_FLOAT
    }
  }
  attr {
    key: "_output_shapes"
    value {
      list {
        shape {
          dim {
            size: 16
          }
        }
      }
    }
  }
}
node {
  name: "Net_prediction/inverted_bottleneck1_1_0/Conv_1/BatchNorm/batchnorm/mul"
  op: "Mul"
  input: "Net_prediction/inverted_bottleneck1_1_0/Conv_1/convolution"
  input: "Net_prediction/inverted_bottleneck1_1_0/Conv_1/BatchNorm/batchnorm/Rsqrt"
  attr {
    key: "T"
    value {
      type: DT_FLOAT
    }
  }
  attr {
    key: "_output_shapes"
    value {
      list {
        shape {
          dim {
            size: -1
          }
          dim {
            size: 300
          }
          dim {
            size: 300
          }
          dim {
            size: 16
          }
        }
      }
    }
  }
}
node {
  name: "Net_prediction/inverted_bottleneck1_1_0/Conv_1/BatchNorm/batchnorm/mul_1"
  op: "Mul"
  input: "Net_prediction/inverted_bottleneck1_1_0/Conv_1/BatchNorm/moments/Squeeze"
  input: "Net_prediction/inverted_bottleneck1_1_0/Conv_1/BatchNorm/batchnorm/Rsqrt"
  attr {
    key: "T"
    value {
      type: DT_FLOAT
    }
  }
  attr {
    key: "_output_shapes"
    value {
      list {
        shape {
          dim {
            size: 16
          }
        }
      }
    }
  }
}
node {
  name: "Net_prediction/inverted_bottleneck1_1_0/Conv_1/BatchNorm/batchnorm/sub"
  op: "Sub"
  input: "inverted_bottleneck1_1_0/Conv_1/BatchNorm/beta/read"
  input: "Net_prediction/inverted_bottleneck1_1_0/Conv_1/BatchNorm/batchnorm/mul_1"
  attr {
    key: "T"
    value {
      type: DT_FLOAT
    }
  }
  attr {
    key: "_output_shapes"
    value {
      list {
        shape {
          dim {
            size: 16
          }
        }
      }
    }
  }
}
node {
  name: "Net_prediction/inverted_bottleneck1_1_0/Conv_1/BatchNorm/batchnorm/add_1"
  op: "Add"
  input: "Net_prediction/inverted_bottleneck1_1_0/Conv_1/BatchNorm/batchnorm/mul"
  input: "Net_prediction/inverted_bottleneck1_1_0/Conv_1/BatchNorm/batchnorm/sub"
  attr {
    key: "T"
    value {
      type: DT_FLOAT
    }
  }
  attr {
    key: "_output_shapes"
    value {
      list {
        shape {
          dim {
            size: -1
          }
          dim {
            size: 300
          }
          dim {
            size: 300
          }
          dim {
            size: 16
          }
        }
      }
    }
  }
}
node {
  name: "inverted_bottleneck2_6_1/Conv/weights/Initializer/random_uniform/shape"
  op: "Const"
  attr {
    key: "_class"
    value {
      list {
        s: "loc:@inverted_bottleneck2_6_1/Conv/weights"
      }
    }
  }
  attr {
    key: "_output_shapes"
    value {
      list {
        shape {
          dim {
            size: 4
          }
        }
      }
    }
  }
  attr {
    key: "dtype"
    value {
      type: DT_INT32
    }
  }
  attr {
    key: "value"
    value {
      tensor {
        dtype: DT_INT32
        tensor_shape {
          dim {
            size: 4
          }
        }
        tensor_content: "\001\000\000\000\001\000\000\000\020\000\000\000`\000\000\000"
      }
    }
  }
}
node {
  name: "inverted_bottleneck2_6_1/Conv/weights/Initializer/random_uniform/min"
  op: "Const"
  attr {
    key: "_class"
    value {
      list {
        s: "loc:@inverted_bottleneck2_6_1/Conv/weights"
      }
    }
  }
  attr {
    key: "_output_shapes"
    value {
      list {
        shape {
        }
      }
    }
  }
  attr {
    key: "dtype"
    value {
      type: DT_FLOAT
    }
  }
  attr {
    key: "value"
    value {
      tensor {
        dtype: DT_FLOAT
        tensor_shape {
        }
        float_val: -0.2314550280570984
      }
    }
  }
}
node {
  name: "inverted_bottleneck2_6_1/Conv/weights/Initializer/random_uniform/max"
  op: "Const"
  attr {
    key: "_class"
    value {
      list {
        s: "loc:@inverted_bottleneck2_6_1/Conv/weights"
      }
    }
  }
  attr {
    key: "_output_shapes"
    value {
      list {
        shape {
        }
      }
    }
  }
  attr {
    key: "dtype"
    value {
      type: DT_FLOAT
    }
  }
  attr {
    key: "value"
    value {
      tensor {
        dtype: DT_FLOAT
        tensor_shape {
        }
        float_val: 0.2314550280570984
      }
    }
  }
}
node {
  name: "inverted_bottleneck2_6_1/Conv/weights/Initializer/random_uniform/RandomUniform"
  op: "RandomUniform"
  input: "inverted_bottleneck2_6_1/Conv/weights/Initializer/random_uniform/shape"
  attr {
    key: "T"
    value {
      type: DT_INT32
    }
  }
  attr {
    key: "_class"
    value {
      list {
        s: "loc:@inverted_bottleneck2_6_1/Conv/weights"
      }
    }
  }
  attr {
    key: "_output_shapes"
    value {
      list {
        shape {
          dim {
            size: 1
          }
          dim {
            size: 1
          }
          dim {
            size: 16
          }
          dim {
            size: 96
          }
        }
      }
    }
  }
  attr {
    key: "dtype"
    value {
      type: DT_FLOAT
    }
  }
  attr {
    key: "seed"
    value {
      i: 0
    }
  }
  attr {
    key: "seed2"
    value {
      i: 0
    }
  }
}
node {
  name: "inverted_bottleneck2_6_1/Conv/weights/Initializer/random_uniform/sub"
  op: "Sub"
  input: "inverted_bottleneck2_6_1/Conv/weights/Initializer/random_uniform/max"
  input: "inverted_bottleneck2_6_1/Conv/weights/Initializer/random_uniform/min"
  attr {
    key: "T"
    value {
      type: DT_FLOAT
    }
  }
  attr {
    key: "_class"
    value {
      list {
        s: "loc:@inverted_bottleneck2_6_1/Conv/weights"
      }
    }
  }
  attr {
    key: "_output_shapes"
    value {
      list {
        shape {
        }
      }
    }
  }
}
node {
  name: "inverted_bottleneck2_6_1/Conv/weights/Initializer/random_uniform/mul"
  op: "Mul"
  input: "inverted_bottleneck2_6_1/Conv/weights/Initializer/random_uniform/RandomUniform"
  input: "inverted_bottleneck2_6_1/Conv/weights/Initializer/random_uniform/sub"
  attr {
    key: "T"
    value {
      type: DT_FLOAT
    }
  }
  attr {
    key: "_class"
    value {
      list {
        s: "loc:@inverted_bottleneck2_6_1/Conv/weights"
      }
    }
  }
  attr {
    key: "_output_shapes"
    value {
      list {
        shape {
          dim {
            size: 1
          }
          dim {
            size: 1
          }
          dim {
            size: 16
          }
          dim {
            size: 96
          }
        }
      }
    }
  }
}
node {
  name: "inverted_bottleneck2_6_1/Conv/weights/Initializer/random_uniform"
  op: "Add"
  input: "inverted_bottleneck2_6_1/Conv/weights/Initializer/random_uniform/mul"
  input: "inverted_bottleneck2_6_1/Conv/weights/Initializer/random_uniform/min"
  attr {
    key: "T"
    value {
      type: DT_FLOAT
    }
  }
  attr {
    key: "_class"
    value {
      list {
        s: "loc:@inverted_bottleneck2_6_1/Conv/weights"
      }
    }
  }
  attr {
    key: "_output_shapes"
    value {
      list {
        shape {
          dim {
            size: 1
          }
          dim {
            size: 1
          }
          dim {
            size: 16
          }
          dim {
            size: 96
          }
        }
      }
    }
  }
}
node {
  name: "inverted_bottleneck2_6_1/Conv/weights"
  op: "VariableV2"
  attr {
    key: "_class"
    value {
      list {
        s: "loc:@inverted_bottleneck2_6_1/Conv/weights"
      }
    }
  }
  attr {
    key: "_output_shapes"
    value {
      list {
        shape {
          dim {
            size: 1
          }
          dim {
            size: 1
          }
          dim {
            size: 16
          }
          dim {
            size: 96
          }
        }
      }
    }
  }
  attr {
    key: "container"
    value {
      s: ""
    }
  }
  attr {
    key: "dtype"
    value {
      type: DT_FLOAT
    }
  }
  attr {
    key: "shape"
    value {
      shape {
        dim {
          size: 1
        }
        dim {
          size: 1
        }
        dim {
          size: 16
        }
        dim {
          size: 96
        }
      }
    }
  }
  attr {
    key: "shared_name"
    value {
      s: ""
    }
  }
}
node {
  name: "inverted_bottleneck2_6_1/Conv/weights/Assign"
  op: "Assign"
  input: "inverted_bottleneck2_6_1/Conv/weights"
  input: "inverted_bottleneck2_6_1/Conv/weights/Initializer/random_uniform"
  attr {
    key: "T"
    value {
      type: DT_FLOAT
    }
  }
  attr {
    key: "_class"
    value {
      list {
        s: "loc:@inverted_bottleneck2_6_1/Conv/weights"
      }
    }
  }
  attr {
    key: "_output_shapes"
    value {
      list {
        shape {
          dim {
            size: 1
          }
          dim {
            size: 1
          }
          dim {
            size: 16
          }
          dim {
            size: 96
          }
        }
      }
    }
  }
  attr {
    key: "use_locking"
    value {
      b: true
    }
  }
  attr {
    key: "validate_shape"
    value {
      b: true
    }
  }
}
node {
  name: "inverted_bottleneck2_6_1/Conv/weights/read"
  op: "Identity"
  input: "inverted_bottleneck2_6_1/Conv/weights"
  attr {
    key: "T"
    value {
      type: DT_FLOAT
    }
  }
  attr {
    key: "_class"
    value {
      list {
        s: "loc:@inverted_bottleneck2_6_1/Conv/weights"
      }
    }
  }
  attr {
    key: "_output_shapes"
    value {
      list {
        shape {
          dim {
            size: 1
          }
          dim {
            size: 1
          }
          dim {
            size: 16
          }
          dim {
            size: 96
          }
        }
      }
    }
  }
}
node {
  name: "Net_prediction/inverted_bottleneck2_6_1/Conv/convolution/Shape"
  op: "Const"
  attr {
    key: "_output_shapes"
    value {
      list {
        shape {
          dim {
            size: 4
          }
        }
      }
    }
  }
  attr {
    key: "dtype"
    value {
      type: DT_INT32
    }
  }
  attr {
    key: "value"
    value {
      tensor {
        dtype: DT_INT32
        tensor_shape {
          dim {
            size: 4
          }
        }
        tensor_content: "\001\000\000\000\001\000\000\000\020\000\000\000`\000\000\000"
      }
    }
  }
}
node {
  name: "Net_prediction/inverted_bottleneck2_6_1/Conv/convolution/dilation_rate"
  op: "Const"
  attr {
    key: "_output_shapes"
    value {
      list {
        shape {
          dim {
            size: 2
          }
        }
      }
    }
  }
  attr {
    key: "dtype"
    value {
      type: DT_INT32
    }
  }
  attr {
    key: "value"
    value {
      tensor {
        dtype: DT_INT32
        tensor_shape {
          dim {
            size: 2
          }
        }
        tensor_content: "\001\000\000\000\001\000\000\000"
      }
    }
  }
}
node {
  name: "Net_prediction/inverted_bottleneck2_6_1/Conv/convolution"
  op: "Conv2D"
  input: "Net_prediction/inverted_bottleneck1_1_0/Conv_1/BatchNorm/batchnorm/add_1"
  input: "inverted_bottleneck2_6_1/Conv/weights/read"
  attr {
    key: "T"
    value {
      type: DT_FLOAT
    }
  }
  attr {
    key: "_output_shapes"
    value {
      list {
        shape {
          dim {
            size: -1
          }
          dim {
            size: 300
          }
          dim {
            size: 300
          }
          dim {
            size: 96
          }
        }
      }
    }
  }
  attr {
    key: "data_format"
    value {
      s: "NHWC"
    }
  }
  attr {
    key: "padding"
    value {
      s: "SAME"
    }
  }
  attr {
    key: "strides"
    value {
      list {
        i: 1
        i: 1
        i: 1
        i: 1
      }
    }
  }
  attr {
    key: "use_cudnn_on_gpu"
    value {
      b: true
    }
  }
}
node {
  name: "inverted_bottleneck2_6_1/Conv/BatchNorm/beta/Initializer/zeros"
  op: "Const"
  attr {
    key: "_class"
    value {
      list {
        s: "loc:@inverted_bottleneck2_6_1/Conv/BatchNorm/beta"
      }
    }
  }
  attr {
    key: "_output_shapes"
    value {
      list {
        shape {
          dim {
            size: 96
          }
        }
      }
    }
  }
  attr {
    key: "dtype"
    value {
      type: DT_FLOAT
    }
  }
  attr {
    key: "value"
    value {
      tensor {
        dtype: DT_FLOAT
        tensor_shape {
          dim {
            size: 96
          }
        }
        float_val: 0.0
      }
    }
  }
}
node {
  name: "inverted_bottleneck2_6_1/Conv/BatchNorm/beta"
  op: "VariableV2"
  attr {
    key: "_class"
    value {
      list {
        s: "loc:@inverted_bottleneck2_6_1/Conv/BatchNorm/beta"
      }
    }
  }
  attr {
    key: "_output_shapes"
    value {
      list {
        shape {
          dim {
            size: 96
          }
        }
      }
    }
  }
  attr {
    key: "container"
    value {
      s: ""
    }
  }
  attr {
    key: "dtype"
    value {
      type: DT_FLOAT
    }
  }
  attr {
    key: "shape"
    value {
      shape {
        dim {
          size: 96
        }
      }
    }
  }
  attr {
    key: "shared_name"
    value {
      s: ""
    }
  }
}
node {
  name: "inverted_bottleneck2_6_1/Conv/BatchNorm/beta/Assign"
  op: "Assign"
  input: "inverted_bottleneck2_6_1/Conv/BatchNorm/beta"
  input: "inverted_bottleneck2_6_1/Conv/BatchNorm/beta/Initializer/zeros"
  attr {
    key: "T"
    value {
      type: DT_FLOAT
    }
  }
  attr {
    key: "_class"
    value {
      list {
        s: "loc:@inverted_bottleneck2_6_1/Conv/BatchNorm/beta"
      }
    }
  }
  attr {
    key: "_output_shapes"
    value {
      list {
        shape {
          dim {
            size: 96
          }
        }
      }
    }
  }
  attr {
    key: "use_locking"
    value {
      b: true
    }
  }
  attr {
    key: "validate_shape"
    value {
      b: true
    }
  }
}
node {
  name: "inverted_bottleneck2_6_1/Conv/BatchNorm/beta/read"
  op: "Identity"
  input: "inverted_bottleneck2_6_1/Conv/BatchNorm/beta"
  attr {
    key: "T"
    value {
      type: DT_FLOAT
    }
  }
  attr {
    key: "_class"
    value {
      list {
        s: "loc:@inverted_bottleneck2_6_1/Conv/BatchNorm/beta"
      }
    }
  }
  attr {
    key: "_output_shapes"
    value {
      list {
        shape {
          dim {
            size: 96
          }
        }
      }
    }
  }
}
node {
  name: "inverted_bottleneck2_6_1/Conv/BatchNorm/moving_mean/Initializer/zeros"
  op: "Const"
  attr {
    key: "_class"
    value {
      list {
        s: "loc:@inverted_bottleneck2_6_1/Conv/BatchNorm/moving_mean"
      }
    }
  }
  attr {
    key: "_output_shapes"
    value {
      list {
        shape {
          dim {
            size: 96
          }
        }
      }
    }
  }
  attr {
    key: "dtype"
    value {
      type: DT_FLOAT
    }
  }
  attr {
    key: "value"
    value {
      tensor {
        dtype: DT_FLOAT
        tensor_shape {
          dim {
            size: 96
          }
        }
        float_val: 0.0
      }
    }
  }
}
node {
  name: "inverted_bottleneck2_6_1/Conv/BatchNorm/moving_mean"
  op: "VariableV2"
  attr {
    key: "_class"
    value {
      list {
        s: "loc:@inverted_bottleneck2_6_1/Conv/BatchNorm/moving_mean"
      }
    }
  }
  attr {
    key: "_output_shapes"
    value {
      list {
        shape {
          dim {
            size: 96
          }
        }
      }
    }
  }
  attr {
    key: "container"
    value {
      s: ""
    }
  }
  attr {
    key: "dtype"
    value {
      type: DT_FLOAT
    }
  }
  attr {
    key: "shape"
    value {
      shape {
        dim {
          size: 96
        }
      }
    }
  }
  attr {
    key: "shared_name"
    value {
      s: ""
    }
  }
}
node {
  name: "inverted_bottleneck2_6_1/Conv/BatchNorm/moving_mean/Assign"
  op: "Assign"
  input: "inverted_bottleneck2_6_1/Conv/BatchNorm/moving_mean"
  input: "inverted_bottleneck2_6_1/Conv/BatchNorm/moving_mean/Initializer/zeros"
  attr {
    key: "T"
    value {
      type: DT_FLOAT
    }
  }
  attr {
    key: "_class"
    value {
      list {
        s: "loc:@inverted_bottleneck2_6_1/Conv/BatchNorm/moving_mean"
      }
    }
  }
  attr {
    key: "_output_shapes"
    value {
      list {
        shape {
          dim {
            size: 96
          }
        }
      }
    }
  }
  attr {
    key: "use_locking"
    value {
      b: true
    }
  }
  attr {
    key: "validate_shape"
    value {
      b: true
    }
  }
}
node {
  name: "inverted_bottleneck2_6_1/Conv/BatchNorm/moving_mean/read"
  op: "Identity"
  input: "inverted_bottleneck2_6_1/Conv/BatchNorm/moving_mean"
  attr {
    key: "T"
    value {
      type: DT_FLOAT
    }
  }
  attr {
    key: "_class"
    value {
      list {
        s: "loc:@inverted_bottleneck2_6_1/Conv/BatchNorm/moving_mean"
      }
    }
  }
  attr {
    key: "_output_shapes"
    value {
      list {
        shape {
          dim {
            size: 96
          }
        }
      }
    }
  }
}
node {
  name: "inverted_bottleneck2_6_1/Conv/BatchNorm/moving_variance/Initializer/ones"
  op: "Const"
  attr {
    key: "_class"
    value {
      list {
        s: "loc:@inverted_bottleneck2_6_1/Conv/BatchNorm/moving_variance"
      }
    }
  }
  attr {
    key: "_output_shapes"
    value {
      list {
        shape {
          dim {
            size: 96
          }
        }
      }
    }
  }
  attr {
    key: "dtype"
    value {
      type: DT_FLOAT
    }
  }
  attr {
    key: "value"
    value {
      tensor {
        dtype: DT_FLOAT
        tensor_shape {
          dim {
            size: 96
          }
        }
        float_val: 1.0
      }
    }
  }
}
node {
  name: "inverted_bottleneck2_6_1/Conv/BatchNorm/moving_variance"
  op: "VariableV2"
  attr {
    key: "_class"
    value {
      list {
        s: "loc:@inverted_bottleneck2_6_1/Conv/BatchNorm/moving_variance"
      }
    }
  }
  attr {
    key: "_output_shapes"
    value {
      list {
        shape {
          dim {
            size: 96
          }
        }
      }
    }
  }
  attr {
    key: "container"
    value {
      s: ""
    }
  }
  attr {
    key: "dtype"
    value {
      type: DT_FLOAT
    }
  }
  attr {
    key: "shape"
    value {
      shape {
        dim {
          size: 96
        }
      }
    }
  }
  attr {
    key: "shared_name"
    value {
      s: ""
    }
  }
}
node {
  name: "inverted_bottleneck2_6_1/Conv/BatchNorm/moving_variance/Assign"
  op: "Assign"
  input: "inverted_bottleneck2_6_1/Conv/BatchNorm/moving_variance"
  input: "inverted_bottleneck2_6_1/Conv/BatchNorm/moving_variance/Initializer/ones"
  attr {
    key: "T"
    value {
      type: DT_FLOAT
    }
  }
  attr {
    key: "_class"
    value {
      list {
        s: "loc:@inverted_bottleneck2_6_1/Conv/BatchNorm/moving_variance"
      }
    }
  }
  attr {
    key: "_output_shapes"
    value {
      list {
        shape {
          dim {
            size: 96
          }
        }
      }
    }
  }
  attr {
    key: "use_locking"
    value {
      b: true
    }
  }
  attr {
    key: "validate_shape"
    value {
      b: true
    }
  }
}
node {
  name: "inverted_bottleneck2_6_1/Conv/BatchNorm/moving_variance/read"
  op: "Identity"
  input: "inverted_bottleneck2_6_1/Conv/BatchNorm/moving_variance"
  attr {
    key: "T"
    value {
      type: DT_FLOAT
    }
  }
  attr {
    key: "_class"
    value {
      list {
        s: "loc:@inverted_bottleneck2_6_1/Conv/BatchNorm/moving_variance"
      }
    }
  }
  attr {
    key: "_output_shapes"
    value {
      list {
        shape {
          dim {
            size: 96
          }
        }
      }
    }
  }
}
node {
  name: "Net_prediction/inverted_bottleneck2_6_1/Conv/BatchNorm/moments/mean/reduction_indices"
  op: "Const"
  attr {
    key: "_output_shapes"
    value {
      list {
        shape {
          dim {
            size: 3
          }
        }
      }
    }
  }
  attr {
    key: "dtype"
    value {
      type: DT_INT32
    }
  }
  attr {
    key: "value"
    value {
      tensor {
        dtype: DT_INT32
        tensor_shape {
          dim {
            size: 3
          }
        }
        tensor_content: "\000\000\000\000\001\000\000\000\002\000\000\000"
      }
    }
  }
}
node {
  name: "Net_prediction/inverted_bottleneck2_6_1/Conv/BatchNorm/moments/mean"
  op: "Mean"
  input: "Net_prediction/inverted_bottleneck2_6_1/Conv/convolution"
  input: "Net_prediction/inverted_bottleneck2_6_1/Conv/BatchNorm/moments/mean/reduction_indices"
  attr {
    key: "T"
    value {
      type: DT_FLOAT
    }
  }
  attr {
    key: "Tidx"
    value {
      type: DT_INT32
    }
  }
  attr {
    key: "_output_shapes"
    value {
      list {
        shape {
          dim {
            size: 1
          }
          dim {
            size: 1
          }
          dim {
            size: 1
          }
          dim {
            size: 96
          }
        }
      }
    }
  }
  attr {
    key: "keep_dims"
    value {
      b: true
    }
  }
}
node {
  name: "Net_prediction/inverted_bottleneck2_6_1/Conv/BatchNorm/moments/StopGradient"
  op: "StopGradient"
  input: "Net_prediction/inverted_bottleneck2_6_1/Conv/BatchNorm/moments/mean"
  attr {
    key: "T"
    value {
      type: DT_FLOAT
    }
  }
  attr {
    key: "_output_shapes"
    value {
      list {
        shape {
          dim {
            size: 1
          }
          dim {
            size: 1
          }
          dim {
            size: 1
          }
          dim {
            size: 96
          }
        }
      }
    }
  }
}
node {
  name: "Net_prediction/inverted_bottleneck2_6_1/Conv/BatchNorm/moments/SquaredDifference"
  op: "SquaredDifference"
  input: "Net_prediction/inverted_bottleneck2_6_1/Conv/convolution"
  input: "Net_prediction/inverted_bottleneck2_6_1/Conv/BatchNorm/moments/StopGradient"
  attr {
    key: "T"
    value {
      type: DT_FLOAT
    }
  }
  attr {
    key: "_output_shapes"
    value {
      list {
        shape {
          dim {
            size: -1
          }
          dim {
            size: 300
          }
          dim {
            size: 300
          }
          dim {
            size: 96
          }
        }
      }
    }
  }
}
node {
  name: "Net_prediction/inverted_bottleneck2_6_1/Conv/BatchNorm/moments/variance/reduction_indices"
  op: "Const"
  attr {
    key: "_output_shapes"
    value {
      list {
        shape {
          dim {
            size: 3
          }
        }
      }
    }
  }
  attr {
    key: "dtype"
    value {
      type: DT_INT32
    }
  }
  attr {
    key: "value"
    value {
      tensor {
        dtype: DT_INT32
        tensor_shape {
          dim {
            size: 3
          }
        }
        tensor_content: "\000\000\000\000\001\000\000\000\002\000\000\000"
      }
    }
  }
}
node {
  name: "Net_prediction/inverted_bottleneck2_6_1/Conv/BatchNorm/moments/variance"
  op: "Mean"
  input: "Net_prediction/inverted_bottleneck2_6_1/Conv/BatchNorm/moments/SquaredDifference"
  input: "Net_prediction/inverted_bottleneck2_6_1/Conv/BatchNorm/moments/variance/reduction_indices"
  attr {
    key: "T"
    value {
      type: DT_FLOAT
    }
  }
  attr {
    key: "Tidx"
    value {
      type: DT_INT32
    }
  }
  attr {
    key: "_output_shapes"
    value {
      list {
        shape {
          dim {
            size: 1
          }
          dim {
            size: 1
          }
          dim {
            size: 1
          }
          dim {
            size: 96
          }
        }
      }
    }
  }
  attr {
    key: "keep_dims"
    value {
      b: true
    }
  }
}
node {
  name: "Net_prediction/inverted_bottleneck2_6_1/Conv/BatchNorm/moments/Squeeze"
  op: "Squeeze"
  input: "Net_prediction/inverted_bottleneck2_6_1/Conv/BatchNorm/moments/mean"
  attr {
    key: "T"
    value {
      type: DT_FLOAT
    }
  }
  attr {
    key: "_output_shapes"
    value {
      list {
        shape {
          dim {
            size: 96
          }
        }
      }
    }
  }
  attr {
    key: "squeeze_dims"
    value {
      list {
        i: 0
        i: 1
        i: 2
      }
    }
  }
}
node {
  name: "Net_prediction/inverted_bottleneck2_6_1/Conv/BatchNorm/moments/Squeeze_1"
  op: "Squeeze"
  input: "Net_prediction/inverted_bottleneck2_6_1/Conv/BatchNorm/moments/variance"
  attr {
    key: "T"
    value {
      type: DT_FLOAT
    }
  }
  attr {
    key: "_output_shapes"
    value {
      list {
        shape {
          dim {
            size: 96
          }
        }
      }
    }
  }
  attr {
    key: "squeeze_dims"
    value {
      list {
        i: 0
        i: 1
        i: 2
      }
    }
  }
}
node {
  name: "Net_prediction/inverted_bottleneck2_6_1/Conv/BatchNorm/AssignMovingAvg/decay"
  op: "Const"
  attr {
    key: "_class"
    value {
      list {
        s: "loc:@inverted_bottleneck2_6_1/Conv/BatchNorm/moving_mean"
      }
    }
  }
  attr {
    key: "_output_shapes"
    value {
      list {
        shape {
        }
      }
    }
  }
  attr {
    key: "dtype"
    value {
      type: DT_FLOAT
    }
  }
  attr {
    key: "value"
    value {
      tensor {
        dtype: DT_FLOAT
        tensor_shape {
        }
        float_val: 0.0010000000474974513
      }
    }
  }
}
node {
  name: "Net_prediction/inverted_bottleneck2_6_1/Conv/BatchNorm/AssignMovingAvg/sub"
  op: "Sub"
  input: "inverted_bottleneck2_6_1/Conv/BatchNorm/moving_mean/read"
  input: "Net_prediction/inverted_bottleneck2_6_1/Conv/BatchNorm/moments/Squeeze"
  attr {
    key: "T"
    value {
      type: DT_FLOAT
    }
  }
  attr {
    key: "_class"
    value {
      list {
        s: "loc:@inverted_bottleneck2_6_1/Conv/BatchNorm/moving_mean"
      }
    }
  }
  attr {
    key: "_output_shapes"
    value {
      list {
        shape {
          dim {
            size: 96
          }
        }
      }
    }
  }
}
node {
  name: "Net_prediction/inverted_bottleneck2_6_1/Conv/BatchNorm/AssignMovingAvg/mul"
  op: "Mul"
…
          dim {
            size: 267
          }
        }
        string_val: "First_conv/Conv/weights"
        string_val: "First_conv/Conv/BatchNorm/beta"
        string_val: "First_conv/Conv/BatchNorm/moving_mean"
        string_val: "First_conv/Conv/BatchNorm/moving_variance"
        string_val: "inverted_bottleneck1_1_0/Conv/weights"
        string_val: "inverted_bottleneck1_1_0/Conv/BatchNorm/beta"
        string_val: "inverted_bottleneck1_1_0/Conv/BatchNorm/moving_mean"
        string_val: "inverted_bottleneck1_1_0/Conv/BatchNorm/moving_variance"
        string_val: "inverted_bottleneck1_1_0/SeparableConv2d/depthwise_weights"
        string_val: "inverted_bottleneck1_1_0/SeparableConv2d/BatchNorm/beta"
        string_val: "inverted_bottleneck1_1_0/SeparableConv2d/BatchNorm/moving_mean"
        string_val: "inverted_bottleneck1_1_0/SeparableConv2d/BatchNorm/moving_variance"
        string_val: "inverted_bottleneck1_1_0/Conv_1/weights"
        string_val: "inverted_bottleneck1_1_0/Conv_1/BatchNorm/beta"
        string_val: "inverted_bottleneck1_1_0/Conv_1/BatchNorm/moving_mean"
        string_val: "inverted_bottleneck1_1_0/Conv_1/BatchNorm/moving_variance"
        string_val: "inverted_bottleneck2_6_1/Conv/weights"
        string_val: "inverted_bottleneck2_6_1/Conv/BatchNorm/beta"
        string_val: "inverted_bottleneck2_6_1/Conv/BatchNorm/moving_mean"
        string_val: "inverted_bottleneck2_6_1/Conv/BatchNorm/moving_variance"
        string_val: "inverted_bottleneck2_6_1/SeparableConv2d/depthwise_weights"
        string_val: "inverted_bottleneck2_6_1/SeparableConv2d/BatchNorm/beta"
        string_val: "inverted_bottleneck2_6_1/SeparableConv2d/BatchNorm/moving_mean"
        string_val: "inverted_bottleneck2_6_1/SeparableConv2d/BatchNorm/moving_variance"
        string_val: "inverted_bottleneck2_6_1/Conv_1/weights"
        string_val: "inverted_bottleneck2_6_1/Conv_1/BatchNorm/beta"
        string_val: "inverted_bottleneck2_6_1/Conv_1/BatchNorm/moving_mean"
        string_val: "inverted_bottleneck2_6_1/Conv_1/BatchNorm/moving_variance"
        string_val: "inverted_bottleneck3_6_0/Conv/weights"
        string_val: "inverted_bottleneck3_6_0/Conv/BatchNorm/beta"
        string_val: "inverted_bottleneck3_6_0/Conv/BatchNorm/moving_mean"
        string_val: "inverted_bottleneck3_6_0/Conv/BatchNorm/moving_variance"
        string_val: "inverted_bottleneck3_6_0/SeparableConv2d/depthwise_weights"
        string_val: "inverted_bottleneck3_6_0/SeparableConv2d/BatchNorm/beta"
        string_val: "inverted_bottleneck3_6_0/SeparableConv2d/BatchNorm/moving_mean"
        string_val: "inverted_bottleneck3_6_0/SeparableConv2d/BatchNorm/moving_variance"
        string_val: "inverted_bottleneck3_6_0/Conv_1/weights"
        string_val: "inverted_bottleneck3_6_0/Conv_1/BatchNorm/beta"
        string_val: "inverted_bottleneck3_6_0/Conv_1/BatchNorm/moving_mean"
        string_val: "inverted_bottleneck3_6_0/Conv_1/BatchNorm/moving_variance"
        string_val: "inverted_bottleneck4_6_1/Conv/weights"
        string_val: "inverted_bottleneck4_6_1/Conv/BatchNorm/beta"
        string_val: "inverted_bottleneck4_6_1/Conv/BatchNorm/moving_mean"
        string_val: "inverted_bottleneck4_6_1/Conv/BatchNorm/moving_variance"
        string_val: "inverted_bottleneck4_6_1/SeparableConv2d/depthwise_weights"
        string_val: "inverted_bottleneck4_6_1/SeparableConv2d/BatchNorm/beta"
        string_val: "inverted_bottleneck4_6_1/SeparableConv2d/BatchNorm/moving_mean"
        string_val: "inverted_bottleneck4_6_1/SeparableConv2d/BatchNorm/moving_variance"
        string_val: "inverted_bottleneck4_6_1/Conv_1/weights"
        string_val: "inverted_bottleneck4_6_1/Conv_1/BatchNorm/beta"
        string_val: "inverted_bottleneck4_6_1/Conv_1/BatchNorm/moving_mean"
        string_val: "inverted_bottleneck4_6_1/Conv_1/BatchNorm/moving_variance"
        string_val: "inverted_bottleneck5_6_0/Conv/weights"
        string_val: "inverted_bottleneck5_6_0/Conv/BatchNorm/beta"
        string_val: "inverted_bottleneck5_6_0/Conv/BatchNorm/moving_mean"
        string_val: "inverted_bottleneck5_6_0/Conv/BatchNorm/moving_variance"
        string_val: "inverted_bottleneck5_6_0/SeparableConv2d/depthwise_weights"
        string_val: "inverted_bottleneck5_6_0/SeparableConv2d/BatchNorm/beta"
        string_val: "inverted_bottleneck5_6_0/SeparableConv2d/BatchNorm/moving_mean"
        string_val: "inverted_bottleneck5_6_0/SeparableConv2d/BatchNorm/moving_variance"
        string_val: "inverted_bottleneck5_6_0/Conv_1/weights"
        string_val: "inverted_bottleneck5_6_0/Conv_1/BatchNorm/beta"
        string_val: "inverted_bottleneck5_6_0/Conv_1/BatchNorm/moving_mean"
        string_val: "inverted_bottleneck5_6_0/Conv_1/BatchNorm/moving_variance"
        string_val: "inverted_bottleneck6_6_1/Conv/weights"
        string_val: "inverted_bottleneck6_6_1/Conv/BatchNorm/beta"
        string_val: "inverted_bottleneck6_6_1/Conv/BatchNorm/moving_mean"
        string_val: "inverted_bottleneck6_6_1/Conv/BatchNorm/moving_variance"
        string_val: "inverted_bottleneck6_6_1/SeparableConv2d/depthwise_weights"
        string_val: "inverted_bottleneck6_6_1/SeparableConv2d/BatchNorm/beta"
        string_val: "inverted_bottleneck6_6_1/SeparableConv2d/BatchNorm/moving_mean"
        string_val: "inverted_bottleneck6_6_1/SeparableConv2d/BatchNorm/moving_variance"
        string_val: "inverted_bottleneck6_6_1/Conv_1/weights"
        string_val: "inverted_bottleneck6_6_1/Conv_1/BatchNorm/beta"
        string_val: "inverted_bottleneck6_6_1/Conv_1/BatchNorm/moving_mean"
        string_val: "inverted_bottleneck6_6_1/Conv_1/BatchNorm/moving_variance"
        string_val: "inverted_bottleneck7_6_0/Conv/weights"
        string_val: "inverted_bottleneck7_6_0/Conv/BatchNorm/beta"
        string_val: "inverted_bottleneck7_6_0/Conv/BatchNorm/moving_mean"
        string_val: "inverted_bottleneck7_6_0/Conv/BatchNorm/moving_variance"
        string_val: "inverted_bottleneck7_6_0/SeparableConv2d/depthwise_weights"
        string_val: "inverted_bottleneck7_6_0/SeparableConv2d/BatchNorm/beta"
        string_val: "inverted_bottleneck7_6_0/SeparableConv2d/BatchNorm/moving_mean"
        string_val: "inverted_bottleneck7_6_0/SeparableConv2d/BatchNorm/moving_variance"
        string_val: "inverted_bottleneck7_6_0/Conv_1/weights"
        string_val: "inverted_bottleneck7_6_0/Conv_1/BatchNorm/beta"
        string_val: "inverted_bottleneck7_6_0/Conv_1/BatchNorm/moving_mean"
        string_val: "inverted_bottleneck7_6_0/Conv_1/BatchNorm/moving_variance"
        string_val: "inverted_bottleneck8_6_0/Conv/weights"
        string_val: "inverted_bottleneck8_6_0/Conv/BatchNorm/beta"
        string_val: "inverted_bottleneck8_6_0/Conv/BatchNorm/moving_mean"
        string_val: "inverted_bottleneck8_6_0/Conv/BatchNorm/moving_variance"
        string_val: "inverted_bottleneck8_6_0/SeparableConv2d/depthwise_weights"
        string_val: "inverted_bottleneck8_6_0/SeparableConv2d/BatchNorm/beta"
        string_val: "inverted_bottleneck8_6_0/SeparableConv2d/BatchNorm/moving_mean"
        string_val: "inverted_bottleneck8_6_0/SeparableConv2d/BatchNorm/moving_variance"
        string_val: "inverted_bottleneck8_6_0/Conv_1/weights"
        string_val: "inverted_bottleneck8_6_0/Conv_1/BatchNorm/beta"
        string_val: "inverted_bottleneck8_6_0/Conv_1/BatchNorm/moving_mean"
        string_val: "inverted_bottleneck8_6_0/Conv_1/BatchNorm/moving_variance"
        string_val: "inverted_bottleneck9_6_0/Conv/weights"
        string_val: "inverted_bottleneck9_6_0/Conv/BatchNorm/beta"
        string_val: "inverted_bottleneck9_6_0/Conv/BatchNorm/moving_mean"
        string_val: "inverted_bottleneck9_6_0/Conv/BatchNorm/moving_variance"
        string_val: "inverted_bottleneck9_6_0/SeparableConv2d/depthwise_weights"
        string_val: "inverted_bottleneck9_6_0/SeparableConv2d/BatchNorm/beta"
        string_val: "inverted_bottleneck9_6_0/SeparableConv2d/BatchNorm/moving_mean"
        string_val: "inverted_bottleneck9_6_0/SeparableConv2d/BatchNorm/moving_variance"
        string_val: "inverted_bottleneck9_6_0/Conv_1/weights"
        string_val: "inverted_bottleneck9_6_0/Conv_1/BatchNorm/beta"
        string_val: "inverted_bottleneck9_6_0/Conv_1/BatchNorm/moving_mean"
        string_val: "inverted_bottleneck9_6_0/Conv_1/BatchNorm/moving_variance"
        string_val: "inverted_bottleneck10_6_0/Conv/weights"
        string_val: "inverted_bottleneck10_6_0/Conv/BatchNorm/beta"
        string_val: "inverted_bottleneck10_6_0/Conv/BatchNorm/moving_mean"
        string_val: "inverted_bottleneck10_6_0/Conv/BatchNorm/moving_variance"
        string_val: "inverted_bottleneck10_6_0/SeparableConv2d/depthwise_weights"
        string_val: "inverted_bottleneck10_6_0/SeparableConv2d/BatchNorm/beta"
        string_val: "inverted_bottleneck10_6_0/SeparableConv2d/BatchNorm/moving_mean"
        string_val: "inverted_bottleneck10_6_0/SeparableConv2d/BatchNorm/moving_variance"
        string_val: "inverted_bottleneck10_6_0/Conv_1/weights"
        string_val: "inverted_bottleneck10_6_0/Conv_1/BatchNorm/beta"
        string_val: "inverted_bottleneck10_6_0/Conv_1/BatchNorm/moving_mean"
        string_val: "inverted_bottleneck10_6_0/Conv_1/BatchNorm/moving_variance"
        string_val: "inverted_bottleneck11_6_0/Conv/weights"
        string_val: "inverted_bottleneck11_6_0/Conv/BatchNorm/beta"
        string_val: "inverted_bottleneck11_6_0/Conv/BatchNorm/moving_mean"
        string_val: "inverted_bottleneck11_6_0/Conv/BatchNorm/moving_variance"
        string_val: "inverted_bottleneck11_6_0/SeparableConv2d/depthwise_weights"
        string_val: "inverted_bottleneck11_6_0/SeparableConv2d/BatchNorm/beta"
        string_val: "inverted_bottleneck11_6_0/SeparableConv2d/BatchNorm/moving_mean"
        string_val: "inverted_bottleneck11_6_0/SeparableConv2d/BatchNorm/moving_variance"
        string_val: "inverted_bottleneck11_6_0/Conv_1/weights"
        string_val: "inverted_bottleneck11_6_0/Conv_1/BatchNorm/beta"
        string_val: "inverted_bottleneck11_6_0/Conv_1/BatchNorm/moving_mean"
        string_val: "inverted_bottleneck11_6_0/Conv_1/BatchNorm/moving_variance"
        string_val: "inverted_bottleneck12_6_0/Conv/weights"
        string_val: "inverted_bottleneck12_6_0/Conv/BatchNorm/beta"
        string_val: "inverted_bottleneck12_6_0/Conv/BatchNorm/moving_mean"
        string_val: "inverted_bottleneck12_6_0/Conv/BatchNorm/moving_variance"
        string_val: "inverted_bottleneck12_6_0/SeparableConv2d/depthwise_weights"
        string_val: "inverted_bottleneck12_6_0/SeparableConv2d/BatchNorm/beta"
        string_val: "inverted_bottleneck12_6_0/SeparableConv2d/BatchNorm/moving_mean"
        string_val: "inverted_bottleneck12_6_0/SeparableConv2d/BatchNorm/moving_variance"
        string_val: "inverted_bottleneck12_6_0/Conv_1/weights"
        string_val: "inverted_bottleneck12_6_0/Conv_1/BatchNorm/beta"
        string_val: "inverted_bottleneck12_6_0/Conv_1/BatchNorm/moving_mean"
        string_val: "inverted_bottleneck12_6_0/Conv_1/BatchNorm/moving_variance"
        string_val: "inverted_bottleneck13_6_1/Conv/weights"
        string_val: "inverted_bottleneck13_6_1/Conv/BatchNorm/beta"
        string_val: "inverted_bottleneck13_6_1/Conv/BatchNorm/moving_mean"
        string_val: "inverted_bottleneck13_6_1/Conv/BatchNorm/moving_variance"
        string_val: "inverted_bottleneck13_6_1/SeparableConv2d/depthwise_weights"
        string_val: "inverted_bottleneck13_6_1/SeparableConv2d/BatchNorm/beta"
        string_val: "inverted_bottleneck13_6_1/SeparableConv2d/BatchNorm/moving_mean"
        string_val: "inverted_bottleneck13_6_1/SeparableConv2d/BatchNorm/moving_variance"
        string_val: "inverted_bottleneck13_6_1/Conv_1/weights"
        string_val: "inverted_bottleneck13_6_1/Conv_1/BatchNorm/beta"
        string_val: "inverted_bottleneck13_6_1/Conv_1/BatchNorm/moving_mean"
        string_val: "inverted_bottleneck13_6_1/Conv_1/BatchNorm/moving_variance"
        string_val: "inverted_bottleneck14_6_0/Conv/weights"
        string_val: "inverted_bottleneck14_6_0/Conv/BatchNorm/beta"
        string_val: "inverted_bottleneck14_6_0/Conv/BatchNorm/moving_mean"
        string_val: "inverted_bottleneck14_6_0/Conv/BatchNorm/moving_variance"
        string_val: "inverted_bottleneck14_6_0/SeparableConv2d/depthwise_weights"
        string_val: "inverted_bottleneck14_6_0/SeparableConv2d/BatchNorm/beta"
        string_val: "inverted_bottleneck14_6_0/SeparableConv2d/BatchNorm/moving_mean"
        string_val: "inverted_bottleneck14_6_0/SeparableConv2d/BatchNorm/moving_variance"
        string_val: "inverted_bottleneck14_6_0/Conv_1/weights"
        string_val: "inverted_bottleneck14_6_0/Conv_1/BatchNorm/beta"
        string_val: "inverted_bottleneck14_6_0/Conv_1/BatchNorm/moving_mean"
        string_val: "inverted_bottleneck14_6_0/Conv_1/BatchNorm/moving_variance"
        string_val: "inverted_bottleneck15_6_0/Conv/weights"
        string_val: "inverted_bottleneck15_6_0/Conv/BatchNorm/beta"
        string_val: "inverted_bottleneck15_6_0/Conv/BatchNorm/moving_mean"
        string_val: "inverted_bottleneck15_6_0/Conv/BatchNorm/moving_variance"
        string_val: "inverted_bottleneck15_6_0/SeparableConv2d/depthwise_weights"
        string_val: "inverted_bottleneck15_6_0/SeparableConv2d/BatchNorm/beta"
        string_val: "inverted_bottleneck15_6_0/SeparableConv2d/BatchNorm/moving_mean"
        string_val: "inverted_bottleneck15_6_0/SeparableConv2d/BatchNorm/moving_variance"
        string_val: "inverted_bottleneck15_6_0/Conv_1/weights"
        string_val: "inverted_bottleneck15_6_0/Conv_1/BatchNorm/beta"
        string_val: "inverted_bottleneck15_6_0/Conv_1/BatchNorm/moving_mean"
        string_val: "inverted_bottleneck15_6_0/Conv_1/BatchNorm/moving_variance"
        string_val: "inverted_bottleneck16_6_0/Conv/weights"
        string_val: "inverted_bottleneck16_6_0/Conv/BatchNorm/beta"
        string_val: "inverted_bottleneck16_6_0/Conv/BatchNorm/moving_mean"
        string_val: "inverted_bottleneck16_6_0/Conv/BatchNorm/moving_variance"
        string_val: "inverted_bottleneck16_6_0/SeparableConv2d/depthwise_weights"
        string_val: "inverted_bottleneck16_6_0/SeparableConv2d/BatchNorm/beta"
        string_val: "inverted_bottleneck16_6_0/SeparableConv2d/BatchNorm/moving_mean"
        string_val: "inverted_bottleneck16_6_0/SeparableConv2d/BatchNorm/moving_variance"
        string_val: "inverted_bottleneck16_6_0/Conv_1/weights"
        string_val: "inverted_bottleneck16_6_0/Conv_1/BatchNorm/beta"
        string_val: "inverted_bottleneck16_6_0/Conv_1/BatchNorm/moving_mean"
        string_val: "inverted_bottleneck16_6_0/Conv_1/BatchNorm/moving_variance"
        string_val: "Decoder41/weights"
        string_val: "Decoder41/biases"
        string_val: "conv_fused_Decoder41/weights"
        string_val: "conv_fused_Decoder41/biases"
        string_val: "Decoder42/weights"
        string_val: "Decoder42/biases"
        string_val: "conv_fused_Decoder42/weights"
        string_val: "conv_fused_Decoder42/biases"
        string_val: "Decoder43/weights"
        string_val: "Decoder43/biases"
        string_val: "conv_fused_Decoder43/weights"
        string_val: "conv_fused_Decoder43/biases"
        string_val: "Decoder44/weights"
        string_val: "Decoder44/biases"
        string_val: "Final_decoder/weights"
        string_val: "Final_decoder/biases"
        string_val: "global_step"
        string_val: "Training/beta1_power"
        string_val: "Training/beta2_power"
        string_val: "First_conv/Conv/weights/Adam"
        string_val: "First_conv/Conv/weights/Adam_1"
        string_val: "First_conv/Conv/BatchNorm/beta/Adam"
        string_val: "First_conv/Conv/BatchNorm/beta/Adam_1"
        string_val: "inverted_bottleneck1_1_0/Conv/weights/Adam"
        string_val: "inverted_bottleneck1_1_0/Conv/weights/Adam_1"
        string_val: "inverted_bottleneck1_1_0/Conv/BatchNorm/beta/Adam"
        string_val: "inverted_bottleneck1_1_0/Conv/BatchNorm/beta/Adam_1"
        string_val: "inverted_bottleneck1_1_0/SeparableConv2d/depthwise_weights/Adam"
        string_val: "inverted_bottleneck1_1_0/SeparableConv2d/depthwise_weights/Adam_1"
        string_val: "inverted_bottleneck1_1_0/SeparableConv2d/BatchNorm/beta/Adam"
        string_val: "inverted_bottleneck1_1_0/SeparableConv2d/BatchNorm/beta/Adam_1"
        string_val: "inverted_bottleneck1_1_0/Conv_1/weights/Adam"
        string_val: "inverted_bottleneck1_1_0/Conv_1/weights/Adam_1"
        string_val: "inverted_bottleneck1_1_0/Conv_1/BatchNorm/beta/Adam"
        string_val: "inverted_bottleneck1_1_0/Conv_1/BatchNorm/beta/Adam_1"
        string_val: "inverted_bottleneck2_6_1/Conv/weights/Adam"
        string_val: "inverted_bottleneck2_6_1/Conv/weights/Adam_1"
        string_val: "inverted_bottleneck2_6_1/Conv/BatchNorm/beta/Adam"
        string_val: "inverted_bottleneck2_6_1/Conv/BatchNorm/beta/Adam_1"
        string_val: "inverted_bottleneck2_6_1/SeparableConv2d/depthwise_weights/Adam"
        string_val: "inverted_bottleneck2_6_1/SeparableConv2d/depthwise_weights/Adam_1"
        string_val: "inverted_bottleneck2_6_1/SeparableConv2d/BatchNorm/beta/Adam"
        string_val: "inverted_bottleneck2_6_1/SeparableConv2d/BatchNorm/beta/Adam_1"
        string_val: "inverted_bottleneck2_6_1/Conv_1/weights/Adam"
        string_val: "inverted_bottleneck2_6_1/Conv_1/weights/Adam_1"
        string_val: "inverted_bottleneck2_6_1/Conv_1/BatchNorm/beta/Adam"
        string_val: "inverted_bottleneck2_6_1/Conv_1/BatchNorm/beta/Adam_1"
        string_val: "inverted_bottleneck3_6_0/Conv/weights/Adam"
        string_val: "inverted_bottleneck3_6_0/Conv/weights/Adam_1"
        string_val: "inverted_bottleneck3_6_0/Conv/BatchNorm/beta/Adam"
        string_val: "inverted_bottleneck3_6_0/Conv/BatchNorm/beta/Adam_1"
        string_val: "inverted_bottleneck3_6_0/SeparableConv2d/depthwise_weights/Adam"
        string_val: "inverted_bottleneck3_6_0/SeparableConv2d/depthwise_weights/Adam_1"
        string_val: "inverted_bottleneck3_6_0/SeparableConv2d/BatchNorm/beta/Adam"
        string_val: "inverted_bottleneck3_6_0/SeparableConv2d/BatchNorm/beta/Adam_1"
        string_val: "inverted_bottleneck3_6_0/Conv_1/weights/Adam"
        string_val: "inverted_bottleneck3_6_0/Conv_1/weights/Adam_1"
        string_val: "inverted_bottleneck3_6_0/Conv_1/BatchNorm/beta/Adam"
        string_val: "inverted_bottleneck3_6_0/Conv_1/BatchNorm/beta/Adam_1"
        string_val: "conv_fused_Decoder43/weights/Adam"
        string_val: "conv_fused_Decoder43/weights/Adam_1"
        string_val: "conv_fused_Decoder43/biases/Adam"
        string_val: "conv_fused_Decoder43/biases/Adam_1"
        string_val: "Decoder44/weights/Adam"
        string_val: "Decoder44/weights/Adam_1"
        string_val: "Decoder44/biases/Adam"
        string_val: "Decoder44/biases/Adam_1"
        string_val: "Final_decoder/weights/Adam"
        string_val: "Final_decoder/weights/Adam_1"
        string_val: "Final_decoder/biases/Adam"
        string_val: "Final_decoder/biases/Adam_1"
      }
    }
  }
}
node {
  name: "report_uninitialized_variables/boolean_mask/Shape"
  op: "Const"
  device: "/device:CPU:0"
  attr {
    key: "_output_shapes"
    value {
      list {
        shape {
          dim {
            size: 1
          }
        }
      }
    }
  }
  attr {
    key: "dtype"
    value {
      type: DT_INT32
    }
  }
  attr {
    key: "value"
    value {
      tensor {
        dtype: DT_INT32
        tensor_shape {
          dim {
            size: 1
          }
        }
        int_val: 267
      }
    }
  }
}
node {
  name: "report_uninitialized_variables/boolean_mask/strided_slice/stack"
  op: "Const"
  device: "/device:CPU:0"
  attr {
    key: "_output_shapes"
    value {
      list {
        shape {
          dim {
            size: 1
          }
        }
      }
    }
  }
  attr {
    key: "dtype"
    value {
      type: DT_INT32
    }
  }
  attr {
    key: "value"
    value {
      tensor {
        dtype: DT_INT32
        tensor_shape {
          dim {
            size: 1
          }
        }
        int_val: 0
      }
    }
  }
}
node {
  name: "report_uninitialized_variables/boolean_mask/strided_slice/stack_1"
  op: "Const"
  device: "/device:CPU:0"
  attr {
    key: "_output_shapes"
    value {
      list {
        shape {
          dim {
            size: 1
          }
        }
      }
    }
  }
  attr {
    key: "dtype"
    value {
      type: DT_INT32
    }
  }
  attr {
    key: "value"
    value {
      tensor {
        dtype: DT_INT32
        tensor_shape {
          dim {
            size: 1
          }
        }
        int_val: 1
      }
    }
  }
}
node {
  name: "report_uninitialized_variables/boolean_mask/strided_slice/stack_2"
  op: "Const"
  device: "/device:CPU:0"
  attr {
    key: "_output_shapes"
    value {
      list {
        shape {
          dim {
            size: 1
          }
        }
      }
    }
  }
  attr {
    key: "dtype"
    value {
      type: DT_INT32
    }
  }
  attr {
    key: "value"
    value {
      tensor {
        dtype: DT_INT32
        tensor_shape {
          dim {
            size: 1
          }
        }
        int_val: 1
      }
    }
  }
}
node {
  name: "report_uninitialized_variables/boolean_mask/strided_slice"
  op: "StridedSlice"
  input: "report_uninitialized_variables/boolean_mask/Shape"
  input: "report_uninitialized_variables/boolean_mask/strided_slice/stack"
  input: "report_uninitialized_variables/boolean_mask/strided_slice/stack_1"
  input: "report_uninitialized_variables/boolean_mask/strided_slice/stack_2"
  device: "/device:CPU:0"
  attr {
    key: "Index"
    value {
      type: DT_INT32
    }
  }
  attr {
    key: "T"
    value {
      type: DT_INT32
    }
  }
  attr {
    key: "_output_shapes"
    value {
      list {
        shape {
          dim {
            size: 1
          }
        }
      }
    }
  }
  attr {
    key: "begin_mask"
    value {
      i: 1
    }
  }
  attr {
    key: "ellipsis_mask"
    value {
      i: 0
    }
  }
  attr {
    key: "end_mask"
    value {
      i: 0
    }
  }
  attr {
    key: "new_axis_mask"
    value {
      i: 0
    }
  }
  attr {
    key: "shrink_axis_mask"
    value {
      i: 0
    }
  }
}
node {
  name: "report_uninitialized_variables/boolean_mask/Prod/reduction_indices"
  op: "Const"
  device: "/device:CPU:0"
  attr {
    key: "_output_shapes"
    value {
      list {
        shape {
          dim {
            size: 1
          }
        }
      }
    }
  }
  attr {
    key: "dtype"
    value {
      type: DT_INT32
    }
  }
  attr {
    key: "value"
    value {
      tensor {
        dtype: DT_INT32
        tensor_shape {
          dim {
            size: 1
          }
        }
        int_val: 0
      }
    }
  }
}
node {
  name: "report_uninitialized_variables/boolean_mask/Prod"
  op: "Prod"
  input: "report_uninitialized_variables/boolean_mask/strided_slice"
  input: "report_uninitialized_variables/boolean_mask/Prod/reduction_indices"
  device: "/device:CPU:0"
  attr {
    key: "T"
    value {
      type: DT_INT32
    }
  }
  attr {
    key: "Tidx"
    value {
      type: DT_INT32
    }
  }
  attr {
    key: "_output_shapes"
    value {
      list {
        shape {
        }
      }
    }
  }
  attr {
    key: "keep_dims"
    value {
      b: false
    }
  }
}
node {
  name: "report_uninitialized_variables/boolean_mask/Shape_1"
  op: "Const"
  device: "/device:CPU:0"
  attr {
    key: "_output_shapes"
    value {
      list {
        shape {
          dim {
            size: 1
          }
        }
      }
    }
  }
  attr {
    key: "dtype"
    value {
      type: DT_INT32
    }
  }
  attr {
    key: "value"
    value {
      tensor {
        dtype: DT_INT32
        tensor_shape {
          dim {
            size: 1
          }
        }
        int_val: 267
      }
    }
  }
}
node {
  name: "report_uninitialized_variables/boolean_mask/strided_slice_1/stack"
  op: "Const"
  device: "/device:CPU:0"
  attr {
    key: "_output_shapes"
    value {
      list {
        shape {
          dim {
            size: 1
          }
        }
      }
    }
  }
  attr {
    key: "dtype"
    value {
      type: DT_INT32
    }
  }
  attr {
    key: "value"
    value {
      tensor {
        dtype: DT_INT32
        tensor_shape {
          dim {
            size: 1
          }
        }
        int_val: 1
      }
    }
  }
}
node {
  name: "report_uninitialized_variables/boolean_mask/strided_slice_1/stack_1"
  op: "Const"
  device: "/device:CPU:0"
  attr {
    key: "_output_shapes"
    value {
      list {
        shape {
          dim {
            size: 1
          }
        }
      }
    }
  }
  attr {
    key: "dtype"
    value {
      type: DT_INT32
    }
  }
  attr {
    key: "value"
    value {
      tensor {
        dtype: DT_INT32
        tensor_shape {
          dim {
            size: 1
          }
        }
        int_val: 0
      }
    }
  }
}
node {
  name: "report_uninitialized_variables/boolean_mask/strided_slice_1/stack_2"
  op: "Const"
  device: "/device:CPU:0"
  attr {
    key: "_output_shapes"
    value {
      list {
        shape {
          dim {
            size: 1
          }
        }
      }
    }
  }
  attr {
    key: "dtype"
    value {
      type: DT_INT32
    }
  }
  attr {
    key: "value"
    value {
      tensor {
        dtype: DT_INT32
        tensor_shape {
          dim {
            size: 1
          }
        }
        int_val: 1
      }
    }
  }
}
node {
  name: "report_uninitialized_variables/boolean_mask/strided_slice_1"
  op: "StridedSlice"
  input: "report_uninitialized_variables/boolean_mask/Shape_1"
  input: "report_uninitialized_variables/boolean_mask/strided_slice_1/stack"
  input: "report_uninitialized_variables/boolean_mask/strided_slice_1/stack_1"
  input: "report_uninitialized_variables/boolean_mask/strided_slice_1/stack_2"
  device: "/device:CPU:0"
  attr {
    key: "Index"
    value {
      type: DT_INT32
    }
  }
  attr {
    key: "T"
    value {
      type: DT_INT32
    }
  }
  attr {
    key: "_output_shapes"
    value {
      list {
        shape {
          dim {
          }
        }
      }
    }
  }
  attr {
    key: "begin_mask"
    value {
      i: 0
    }
  }
  attr {
    key: "ellipsis_mask"
    value {
      i: 0
    }
  }
  attr {
    key: "end_mask"
    value {
      i: 1
    }
  }
  attr {
    key: "new_axis_mask"
    value {
      i: 0
    }
  }
  attr {
    key: "shrink_axis_mask"
    value {
      i: 0
    }
  }
}
node {
  name: "report_uninitialized_variables/boolean_mask/concat/values_0"
  op: "Pack"
  input: "report_uninitialized_variables/boolean_mask/Prod"
  device: "/device:CPU:0"
  attr {
    key: "N"
    value {
      i: 1
    }
  }
  attr {
    key: "T"
    value {
      type: DT_INT32
    }
  }
  attr {
    key: "_output_shapes"
    value {
      list {
        shape {
          dim {
            size: 1
          }
        }
      }
    }
  }
  attr {
    key: "axis"
    value {
      i: 0
    }
  }
}
node {
  name: "report_uninitialized_variables/boolean_mask/concat/axis"
  op: "Const"
  device: "/device:CPU:0"
  attr {
    key: "_output_shapes"
    value {
      list {
        shape {
        }
      }
    }
  }
  attr {
    key: "dtype"
    value {
      type: DT_INT32
    }
  }
  attr {
    key: "value"
    value {
      tensor {
        dtype: DT_INT32
        tensor_shape {
        }
        int_val: 0
      }
    }
  }
}
node {
  name: "report_uninitialized_variables/boolean_mask/concat"
  op: "ConcatV2"
  input: "report_uninitialized_variables/boolean_mask/concat/values_0"
  input: "report_uninitialized_variables/boolean_mask/strided_slice_1"
  input: "report_uninitialized_variables/boolean_mask/concat/axis"
  device: "/device:CPU:0"
  attr {
    key: "N"
    value {
      i: 2
    }
  }
  attr {
    key: "T"
    value {
      type: DT_INT32
    }
  }
  attr {
    key: "Tidx"
    value {
      type: DT_INT32
    }
  }
  attr {
    key: "_output_shapes"
    value {
      list {
        shape {
          dim {
            size: 1
          }
        }
      }
    }
  }
}
node {
  name: "report_uninitialized_variables/boolean_mask/Reshape"
  op: "Reshape"
  input: "report_uninitialized_variables/Const"
  input: "report_uninitialized_variables/boolean_mask/concat"
  device: "/device:CPU:0"
  attr {
    key: "T"
    value {
      type: DT_STRING
    }
  }
  attr {
    key: "Tshape"
    value {
      type: DT_INT32
    }
  }
  attr {
    key: "_output_shapes"
    value {
      list {
        shape {
          dim {
            size: 267
          }
        }
      }
    }
  }
}
node {
  name: "report_uninitialized_variables/boolean_mask/Reshape_1/shape"
  op: "Const"
  device: "/device:CPU:0"
  attr {
    key: "_output_shapes"
    value {
      list {
        shape {
          dim {
            size: 1
          }
        }
      }
    }
  }
  attr {
    key: "dtype"
    value {
      type: DT_INT32
    }
  }
  attr {
    key: "value"
    value {
      tensor {
        dtype: DT_INT32
        tensor_shape {
          dim {
            size: 1
          }
        }
        int_val: -1
      }
    }
  }
}
node {
  name: "report_uninitialized_variables/boolean_mask/Reshape_1"
  op: "Reshape"
  input: "report_uninitialized_variables/LogicalNot"
  input: "report_uninitialized_variables/boolean_mask/Reshape_1/shape"
  device: "/device:CPU:0"
  attr {
    key: "T"
    value {
      type: DT_BOOL
    }
  }
  attr {
    key: "Tshape"
    value {
      type: DT_INT32
    }
  }
  attr {
    key: "_output_shapes"
    value {
      list {
        shape {
          dim {
            size: 267
          }
        }
      }
    }
  }
}
node {
  name: "report_uninitialized_variables/boolean_mask/Where"
  op: "Where"
  input: "report_uninitialized_variables/boolean_mask/Reshape_1"
  device: "/device:CPU:0"
  attr {
    key: "_output_shapes"
    value {
      list {
        shape {
          dim {
            size: -1
          }
          dim {
            size: 1
          }
        }
      }
    }
  }
}
node {
  name: "report_uninitialized_variables/boolean_mask/Squeeze"
  op: "Squeeze"
  input: "report_uninitialized_variables/boolean_mask/Where"
  device: "/device:CPU:0"
  attr {
    key: "T"
    value {
      type: DT_INT64
    }
  }
  attr {
    key: "_output_shapes"
    value {
      list {
        shape {
          dim {
            size: -1
          }
        }
      }
    }
  }
  attr {
    key: "squeeze_dims"
    value {
      list {
        i: 1
      }
    }
  }
}
node {
  name: "report_uninitialized_variables/boolean_mask/Gather"
  op: "Gather"
  input: "report_uninitialized_variables/boolean_mask/Reshape"
  input: "report_uninitialized_variables/boolean_mask/Squeeze"
  device: "/device:CPU:0"
  attr {
    key: "Tindices"
    value {
      type: DT_INT64
    }
  }
  attr {
    key: "Tparams"
    value {
      type: DT_STRING
    }
  }
  attr {
    key: "_output_shapes"
    value {
      list {
        shape {
          dim {
            size: -1
          }
        }
      }
    }
  }
  attr {
    key: "validate_indices"
    value {
      b: true
    }
  }
}
node {
  name: "init"
  op: "NoOp"
  input: "^First_conv/Conv/weights/Assign"
  input: "^First_conv/Conv/BatchNorm/beta/Assign"
  input: "^First_conv/Conv/BatchNorm/moving_mean/Assign"
  input: "^First_conv/Conv/BatchNorm/moving_variance/Assign"
  input: "^inverted_bottleneck1_1_0/Conv/weights/Assign"
  input: "^inverted_bottleneck1_1_0/Conv/BatchNorm/beta/Assign"
  input: "^inverted_bottleneck1_1_0/Conv/BatchNorm/moving_mean/Assign"
  input: "^inverted_bottleneck1_1_0/Conv/BatchNorm/moving_variance/Assign"
  input: "^inverted_bottleneck1_1_0/SeparableConv2d/depthwise_weights/Assign"
  input: "^inverted_bottleneck1_1_0/SeparableConv2d/BatchNorm/beta/Assign"
  input: "^inverted_bottleneck1_1_0/SeparableConv2d/BatchNorm/moving_mean/Assign"
  input: "^inverted_bottleneck1_1_0/SeparableConv2d/BatchNorm/moving_variance/Assign"
  input: "^inverted_bottleneck1_1_0/Conv_1/weights/Assign"
  input: "^inverted_bottleneck1_1_0/Conv_1/BatchNorm/beta/Assign"
  input: "^inverted_bottleneck1_1_0/Conv_1/BatchNorm/moving_mean/Assign"
  input: "^inverted_bottleneck1_1_0/Conv_1/BatchNorm/moving_variance/Assign"
  input: "^inverted_bottleneck2_6_1/Conv/weights/Assign"
  input: "^inverted_bottleneck2_6_1/Conv/BatchNorm/beta/Assign"
  input: "^inverted_bottleneck2_6_1/Conv/BatchNorm/moving_mean/Assign"
  input: "^inverted_bottleneck2_6_1/Conv/BatchNorm/moving_variance/Assign"
  input: "^inverted_bottleneck2_6_1/SeparableConv2d/depthwise_weights/Assign"
  input: "^inverted_bottleneck2_6_1/SeparableConv2d/BatchNorm/beta/Assign"
  input: "^inverted_bottleneck2_6_1/SeparableConv2d/BatchNorm/moving_mean/Assign"
  input: "^inverted_bottleneck2_6_1/SeparableConv2d/BatchNorm/moving_variance/Assign"
  input: "^inverted_bottleneck2_6_1/Conv_1/weights/Assign"
  input: "^inverted_bottleneck2_6_1/Conv_1/BatchNorm/beta/Assign"
  input: "^inverted_bottleneck2_6_1/Conv_1/BatchNorm/moving_mean/Assign"
  input: "^inverted_bottleneck2_6_1/Conv_1/BatchNorm/moving_variance/Assign"
  input: "^inverted_bottleneck3_6_0/Conv/weights/Assign"
  input: "^inverted_bottleneck3_6_0/Conv/BatchNorm/beta/Assign"
  input: "^inverted_bottleneck3_6_0/Conv/BatchNorm/moving_mean/Assign"
  input: "^inverted_bottleneck3_6_0/Conv/BatchNorm/moving_variance/Assign"
  input: "^inverted_bottleneck3_6_0/SeparableConv2d/depthwise_weights/Assign"
  input: "^inverted_bottleneck3_6_0/SeparableConv2d/BatchNorm/beta/Assign"
  input: "^inverted_bottleneck3_6_0/SeparableConv2d/BatchNorm/moving_mean/Assign"
  input: "^inverted_bottleneck3_6_0/SeparableConv2d/BatchNorm/moving_variance/Assign"
  input: "^inverted_bottleneck3_6_0/Conv_1/weights/Assign"
  input: "^inverted_bottleneck3_6_0/Conv_1/BatchNorm/beta/Assign"
  input: "^inverted_bottleneck3_6_0/Conv_1/BatchNorm/moving_mean/Assign"
  input: "^inverted_bottleneck3_6_0/Conv_1/BatchNorm/moving_variance/Assign"
  input: "^inverted_bottleneck4_6_1/Conv/weights/Assign"
  input: "^inverted_bottleneck4_6_1/Conv/BatchNorm/beta/Assign"
  input: "^inverted_bottleneck4_6_1/Conv/BatchNorm/moving_mean/Assign"
  input: "^inverted_bottleneck4_6_1/Conv/BatchNorm/moving_variance/Assign"
  input: "^inverted_bottleneck4_6_1/SeparableConv2d/depthwise_weights/Assign"
  input: "^inverted_bottleneck4_6_1/SeparableConv2d/BatchNorm/beta/Assign"
  input: "^inverted_bottleneck4_6_1/SeparableConv2d/BatchNorm/moving_mean/Assign"
  input: "^inverted_bottleneck4_6_1/SeparableConv2d/BatchNorm/moving_variance/Assign"
  input: "^inverted_bottleneck4_6_1/Conv_1/weights/Assign"
  input: "^inverted_bottleneck4_6_1/Conv_1/BatchNorm/beta/Assign"
  input: "^inverted_bottleneck4_6_1/Conv_1/BatchNorm/moving_mean/Assign"
  input: "^inverted_bottleneck4_6_1/Conv_1/BatchNorm/moving_variance/Assign"
  input: "^inverted_bottleneck5_6_0/Conv/weights/Assign"
  input: "^inverted_bottleneck5_6_0/Conv/BatchNorm/beta/Assign"
  input: "^inverted_bottleneck5_6_0/Conv/BatchNorm/moving_mean/Assign"
  input: "^inverted_bottleneck5_6_0/Conv/BatchNorm/moving_variance/Assign"
  input: "^inverted_bottleneck5_6_0/SeparableConv2d/depthwise_weights/Assign"
  input: "^inverted_bottleneck5_6_0/SeparableConv2d/BatchNorm/beta/Assign"
  input: "^inverted_bottleneck5_6_0/SeparableConv2d/BatchNorm/moving_mean/Assign"
  input: "^inverted_bottleneck5_6_0/SeparableConv2d/BatchNorm/moving_variance/Assign"
  input: "^inverted_bottleneck5_6_0/Conv_1/weights/Assign"
  input: "^inverted_bottleneck5_6_0/Conv_1/BatchNorm/beta/Assign"
  input: "^inverted_bottleneck5_6_0/Conv_1/BatchNorm/moving_mean/Assign"
  input: "^inverted_bottleneck5_6_0/Conv_1/BatchNorm/moving_variance/Assign"
  input: "^inverted_bottleneck6_6_1/Conv/weights/Assign"
  input: "^inverted_bottleneck6_6_1/Conv/BatchNorm/beta/Assign"
  input: "^inverted_bottleneck6_6_1/Conv/BatchNorm/moving_mean/Assign"
  input: "^inverted_bottleneck6_6_1/Conv/BatchNorm/moving_variance/Assign"
  input: "^inverted_bottleneck6_6_1/SeparableConv2d/depthwise_weights/Assign"
  input: "^inverted_bottleneck6_6_1/SeparableConv2d/BatchNorm/beta/Assign"
  input: "^inverted_bottleneck6_6_1/SeparableConv2d/BatchNorm/moving_mean/Assign"
  input: "^inverted_bottleneck6_6_1/SeparableConv2d/BatchNorm/moving_variance/Assign"
  input: "^inverted_bottleneck6_6_1/Conv_1/weights/Assign"
  input: "^inverted_bottleneck6_6_1/Conv_1/BatchNorm/beta/Assign"
  input: "^inverted_bottleneck6_6_1/Conv_1/BatchNorm/moving_mean/Assign"
  input: "^inverted_bottleneck6_6_1/Conv_1/BatchNorm/moving_variance/Assign"
  input: "^inverted_bottleneck7_6_0/Conv/weights/Assign"
  input: "^inverted_bottleneck7_6_0/Conv/BatchNorm/beta/Assign"
  input: "^inverted_bottleneck7_6_0/Conv/BatchNorm/moving_mean/Assign"
  input: "^inverted_bottleneck7_6_0/Conv/BatchNorm/moving_variance/Assign"
  input: "^inverted_bottleneck7_6_0/SeparableConv2d/depthwise_weights/Assign"
  input: "^inverted_bottleneck7_6_0/SeparableConv2d/BatchNorm/beta/Assign"
  input: "^inverted_bottleneck7_6_0/SeparableConv2d/BatchNorm/moving_mean/Assign"
  input: "^inverted_bottleneck7_6_0/SeparableConv2d/BatchNorm/moving_variance/Assign"
  input: "^inverted_bottleneck7_6_0/Conv_1/weights/Assign"
  input: "^inverted_bottleneck7_6_0/Conv_1/BatchNorm/beta/Assign"
  input: "^inverted_bottleneck7_6_0/Conv_1/BatchNorm/moving_mean/Assign"
  input: "^inverted_bottleneck7_6_0/Conv_1/BatchNorm/moving_variance/Assign"
  input: "^inverted_bottleneck8_6_0/Conv/weights/Assign"
  input: "^inverted_bottleneck8_6_0/Conv/BatchNorm/beta/Assign"
  input: "^inverted_bottleneck8_6_0/Conv/BatchNorm/moving_mean/Assign"
  input: "^inverted_bottleneck8_6_0/Conv/BatchNorm/moving_variance/Assign"
  input: "^inverted_bottleneck8_6_0/SeparableConv2d/depthwise_weights/Assign"
  input: "^inverted_bottleneck8_6_0/SeparableConv2d/BatchNorm/beta/Assign"
  input: "^inverted_bottleneck8_6_0/SeparableConv2d/BatchNorm/moving_mean/Assign"
  input: "^inverted_bottleneck8_6_0/SeparableConv2d/BatchNorm/moving_variance/Assign"
  input: "^inverted_bottleneck8_6_0/Conv_1/weights/Assign"
  input: "^inverted_bottleneck8_6_0/Conv_1/BatchNorm/beta/Assign"
  input: "^inverted_bottleneck8_6_0/Conv_1/BatchNorm/moving_mean/Assign"
  input: "^inverted_bottleneck8_6_0/Conv_1/BatchNorm/moving_variance/Assign"
  input: "^inverted_bottleneck9_6_0/Conv/weights/Assign"
  input: "^inverted_bottleneck9_6_0/Conv/BatchNorm/beta/Assign"
  input: "^inverted_bottleneck9_6_0/Conv/BatchNorm/moving_mean/Assign"
  input: "^inverted_bottleneck9_6_0/Conv/BatchNorm/moving_variance/Assign"
  input: "^inverted_bottleneck9_6_0/SeparableConv2d/depthwise_weights/Assign"
  input: "^inverted_bottleneck9_6_0/SeparableConv2d/BatchNorm/beta/Assign"
  input: "^inverted_bottleneck9_6_0/SeparableConv2d/BatchNorm/moving_mean/Assign"
  input: "^inverted_bottleneck9_6_0/SeparableConv2d/BatchNorm/moving_variance/Assign"
  input: "^inverted_bottleneck9_6_0/Conv_1/weights/Assign"
  input: "^inverted_bottleneck9_6_0/Conv_1/BatchNorm/beta/Assign"
  input: "^inverted_bottleneck9_6_0/Conv_1/BatchNorm/moving_mean/Assign"
  input: "^inverted_bottleneck9_6_0/Conv_1/BatchNorm/moving_variance/Assign"
  input: "^inverted_bottleneck10_6_0/Conv/weights/Assign"
  input: "^inverted_bottleneck10_6_0/Conv/BatchNorm/beta/Assign"
  input: "^inverted_bottleneck10_6_0/Conv/BatchNorm/moving_mean/Assign"
  input: "^inverted_bottleneck10_6_0/Conv/BatchNorm/moving_variance/Assign"
  input: "^inverted_bottleneck10_6_0/SeparableConv2d/depthwise_weights/Assign"
  input: "^inverted_bottleneck10_6_0/SeparableConv2d/BatchNorm/beta/Assign"
  input: "^inverted_bottleneck10_6_0/SeparableConv2d/BatchNorm/moving_mean/Assign"
  input: "^inverted_bottleneck10_6_0/SeparableConv2d/BatchNorm/moving_variance/Assign"
  input: "^inverted_bottleneck10_6_0/Conv_1/weights/Assign"
  input: "^inverted_bottleneck10_6_0/Conv_1/BatchNorm/beta/Assign"
  input: "^inverted_bottleneck10_6_0/Conv_1/BatchNorm/moving_mean/Assign"
  input: "^inverted_bottleneck10_6_0/Conv_1/BatchNorm/moving_variance/Assign"
  input: "^inverted_bottleneck11_6_0/Conv/weights/Assign"
  input: "^inverted_bottleneck11_6_0/Conv/BatchNorm/beta/Assign"
  input: "^inverted_bottleneck11_6_0/Conv/BatchNorm/moving_mean/Assign"
  input: "^inverted_bottleneck11_6_0/Conv/BatchNorm/moving_variance/Assign"
  input: "^inverted_bottleneck11_6_0/SeparableConv2d/depthwise_weights/Assign"
  input: "^inverted_bottleneck11_6_0/SeparableConv2d/BatchNorm/beta/Assign"
  input: "^inverted_bottleneck11_6_0/SeparableConv2d/BatchNorm/moving_mean/Assign"
  input: "^inverted_bottleneck11_6_0/SeparableConv2d/BatchNorm/moving_variance/Assign"
  input: "^inverted_bottleneck11_6_0/Conv_1/weights/Assign"
  input: "^inverted_bottleneck11_6_0/Conv_1/BatchNorm/beta/Assign"
  input: "^inverted_bottleneck11_6_0/Conv_1/BatchNorm/moving_mean/Assign"
  input: "^inverted_bottleneck11_6_0/Conv_1/BatchNorm/moving_variance/Assign"
  input: "^inverted_bottleneck12_6_0/Conv/weights/Assign"
  input: "^inverted_bottleneck12_6_0/Conv/BatchNorm/beta/Assign"
  input: "^inverted_bottleneck12_6_0/Conv/BatchNorm/moving_mean/Assign"
  input: "^inverted_bottleneck12_6_0/Conv/BatchNorm/moving_variance/Assign"
  input: "^inverted_bottleneck12_6_0/SeparableConv2d/depthwise_weights/Assign"
  input: "^inverted_bottleneck12_6_0/SeparableConv2d/BatchNorm/beta/Assign"
  input: "^inverted_bottleneck12_6_0/SeparableConv2d/BatchNorm/moving_mean/Assign"
  input: "^inverted_bottleneck12_6_0/SeparableConv2d/BatchNorm/moving_variance/Assign"
  input: "^inverted_bottleneck12_6_0/Conv_1/weights/Assign"
  input: "^inverted_bottleneck12_6_0/Conv_1/BatchNorm/beta/Assign"
  input: "^inverted_bottleneck12_6_0/Conv_1/BatchNorm/moving_mean/Assign"
  input: "^inverted_bottleneck12_6_0/Conv_1/BatchNorm/moving_variance/Assign"
  input: "^inverted_bottleneck13_6_1/Conv/weights/Assign"
  input: "^inverted_bottleneck13_6_1/Conv/BatchNorm/beta/Assign"
  input: "^inverted_bottleneck13_6_1/Conv/BatchNorm/moving_mean/Assign"
  input: "^inverted_bottleneck13_6_1/Conv/BatchNorm/moving_variance/Assign"
  input: "^inverted_bottleneck13_6_1/SeparableConv2d/depthwise_weights/Assign"
  input: "^inverted_bottleneck13_6_1/SeparableConv2d/BatchNorm/beta/Assign"
  input: "^inverted_bottleneck13_6_1/SeparableConv2d/BatchNorm/moving_mean/Assign"
  input: "^inverted_bottleneck13_6_1/SeparableConv2d/BatchNorm/moving_variance/Assign"
  input: "^inverted_bottleneck13_6_1/Conv_1/weights/Assign"
  input: "^inverted_bottleneck13_6_1/Conv_1/BatchNorm/beta/Assign"
  input: "^inverted_bottleneck13_6_1/Conv_1/BatchNorm/moving_mean/Assign"
  input: "^inverted_bottleneck13_6_1/Conv_1/BatchNorm/moving_variance/Assign"
  input: "^inverted_bottleneck14_6_0/Conv/weights/Assign"
  input: "^inverted_bottleneck14_6_0/Conv/BatchNorm/beta/Assign"
  input: "^inverted_bottleneck14_6_0/Conv/BatchNorm/moving_mean/Assign"
  input: "^inverted_bottleneck14_6_0/Conv/BatchNorm/moving_variance/Assign"
  input: "^inverted_bottleneck14_6_0/SeparableConv2d/depthwise_weights/Assign"
  input: "^inverted_bottleneck14_6_0/SeparableConv2d/BatchNorm/beta/Assign"
  input: "^inverted_bottleneck14_6_0/SeparableConv2d/BatchNorm/moving_mean/Assign"
  input: "^inverted_bottleneck14_6_0/SeparableConv2d/BatchNorm/moving_variance/Assign"
  input: "^inverted_bottleneck14_6_0/Conv_1/weights/Assign"
  input: "^inverted_bottleneck14_6_0/Conv_1/BatchNorm/beta/Assign"
  input: "^inverted_bottleneck14_6_0/Conv_1/BatchNorm/moving_mean/Assign"
  input: "^inverted_bottleneck14_6_0/Conv_1/BatchNorm/moving_variance/Assign"
  input: "^inverted_bottleneck15_6_0/Conv/weights/Assign"
  input: "^inverted_bottleneck15_6_0/Conv/BatchNorm/beta/Assign"
  input: "^inverted_bottleneck15_6_0/Conv/BatchNorm/moving_mean/Assign"
  input: "^inverted_bottleneck15_6_0/Conv/BatchNorm/moving_variance/Assign"
  input: "^inverted_bottleneck15_6_0/SeparableConv2d/depthwise_weights/Assign"
  input: "^inverted_bottleneck15_6_0/SeparableConv2d/BatchNorm/beta/Assign"
  input: "^inverted_bottleneck15_6_0/SeparableConv2d/BatchNorm/moving_mean/Assign"
  input: "^inverted_bottleneck15_6_0/SeparableConv2d/BatchNorm/moving_variance/Assign"
  input: "^inverted_bottleneck15_6_0/Conv_1/weights/Assign"
  input: "^inverted_bottleneck15_6_0/Conv_1/BatchNorm/beta/Assign"
  input: "^inverted_bottleneck15_6_0/Conv_1/BatchNorm/moving_mean/Assign"
  input: "^inverted_bottleneck15_6_0/Conv_1/BatchNorm/moving_variance/Assign"
  input: "^inverted_bottleneck16_6_0/Conv/weights/Assign"
  input: "^inverted_bottleneck16_6_0/Conv/BatchNorm/beta/Assign"
  input: "^inverted_bottleneck16_6_0/Conv/BatchNorm/moving_mean/Assign"
  input: "^inverted_bottleneck16_6_0/Conv/BatchNorm/moving_variance/Assign"
  input: "^inverted_bottleneck16_6_0/SeparableConv2d/depthwise_weights/Assign"
  input: "^inverted_bottleneck16_6_0/SeparableConv2d/BatchNorm/beta/Assign"
  input: "^inverted_bottleneck16_6_0/SeparableConv2d/BatchNorm/moving_mean/Assign"
  input: "^inverted_bottleneck16_6_0/SeparableConv2d/BatchNorm/moving_variance/Assign"
  input: "^inverted_bottleneck16_6_0/Conv_1/weights/Assign"
  input: "^inverted_bottleneck16_6_0/Conv_1/BatchNorm/beta/Assign"
  input: "^inverted_bottleneck16_6_0/Conv_1/BatchNorm/moving_mean/Assign"
  input: "^inverted_bottleneck16_6_0/Conv_1/BatchNorm/moving_variance/Assign"
  input: "^Decoder41/weights/Assign"
  input: "^Decoder41/biases/Assign"
  input: "^conv_fused_Decoder41/weights/Assign"
  input: "^conv_fused_Decoder41/biases/Assign"
  input: "^Decoder42/weights/Assign"
  input: "^Decoder42/biases/Assign"
  input: "^conv_fused_Decoder42/weights/Assign"
  input: "^conv_fused_Decoder42/biases/Assign"
  input: "^Decoder43/weights/Assign"
  input: "^Decoder43/biases/Assign"
  input: "^conv_fused_Decoder43/weights/Assign"
  input: "^conv_fused_Decoder43/biases/Assign"
  input: "^Decoder44/weights/Assign"
  input: "^Decoder44/biases/Assign"
  input: "^Final_decoder/weights/Assign"
  input: "^Final_decoder/biases/Assign"
  input: "^global_step/Assign"
  input: "^Training/beta1_power/Assign"
  input: "^Training/beta2_power/Assign"
  input: "^First_conv/Conv/weights/Adam/Assign"
  input: "^First_conv/Conv/weights/Adam_1/Assign"
  input: "^First_conv/Conv/BatchNorm/beta/Adam/Assign"
  input: "^First_conv/Conv/BatchNorm/beta/Adam_1/Assign"
  input: "^inverted_bottleneck1_1_0/Conv/weights/Adam/Assign"
  input: "^inverted_bottleneck1_1_0/Conv/weights/Adam_1/Assign"
  input: "^inverted_bottleneck1_1_0/Conv/BatchNorm/beta/Adam/Assign"
  input: "^inverted_bottleneck1_1_0/Conv/BatchNorm/beta/Adam_1/Assign"
  input: "^inverted_bottleneck1_1_0/SeparableConv2d/depthwise_weights/Adam/Assign"
  input: "^inverted_bottleneck1_1_0/SeparableConv2d/depthwise_weights/Adam_1/Assign"
  input: "^inverted_bottleneck1_1_0/SeparableConv2d/BatchNorm/beta/Adam/Assign"
  input: "^inverted_bottleneck1_1_0/SeparableConv2d/BatchNorm/beta/Adam_1/Assign"
  input: "^inverted_bottleneck1_1_0/Conv_1/weights/Adam/Assign"
  input: "^inverted_bottleneck1_1_0/Conv_1/weights/Adam_1/Assign"
  input: "^inverted_bottleneck1_1_0/Conv_1/BatchNorm/beta/Adam/Assign"
  input: "^inverted_bottleneck1_1_0/Conv_1/BatchNorm/beta/Adam_1/Assign"
  input: "^inverted_bottleneck2_6_1/Conv/weights/Adam/Assign"
  input: "^inverted_bottleneck2_6_1/Conv/weights/Adam_1/Assign"
  input: "^inverted_bottleneck2_6_1/Conv/BatchNorm/beta/Adam/Assign"
  input: "^inverted_bottleneck2_6_1/Conv/BatchNorm/beta/Adam_1/Assign"
  input: "^inverted_bottleneck2_6_1/SeparableConv2d/depthwise_weights/Adam/Assign"
  input: "^inverted_bottleneck2_6_1/SeparableConv2d/depthwise_weights/Adam_1/Assign"
  input: "^inverted_bottleneck2_6_1/SeparableConv2d/BatchNorm/beta/Adam/Assign"
  input: "^inverted_bottleneck2_6_1/SeparableConv2d/BatchNorm/beta/Adam_1/Assign"
  input: "^inverted_bottleneck2_6_1/Conv_1/weights/Adam/Assign"
  input: "^inverted_bottleneck2_6_1/Conv_1/weights/Adam_1/Assign"
  input: "^inverted_bottleneck2_6_1/Conv_1/BatchNorm/beta/Adam/Assign"
  input: "^inverted_bottleneck2_6_1/Conv_1/BatchNorm/beta/Adam_1/Assign"
  input: "^inverted_bottleneck3_6_0/Conv/weights/Adam/Assign"
  input: "^inverted_bottleneck3_6_0/Conv/weights/Adam_1/Assign"
  input: "^inverted_bottleneck3_6_0/Conv/BatchNorm/beta/Adam/Assign"
  input: "^inverted_bottleneck3_6_0/Conv/BatchNorm/beta/Adam_1/Assign"
  input: "^inverted_bottleneck3_6_0/SeparableConv2d/depthwise_weights/Adam/Assign"
  input: "^inverted_bottleneck3_6_0/SeparableConv2d/depthwise_weights/Adam_1/Assign"
  input: "^inverted_bottleneck3_6_0/SeparableConv2d/BatchNorm/beta/Adam/Assign"
  input: "^inverted_bottleneck3_6_0/SeparableConv2d/BatchNorm/beta/Adam_1/Assign"
  input: "^inverted_bottleneck3_6_0/Conv_1/weights/Adam/Assign"
  input: "^inverted_bottleneck3_6_0/Conv_1/weights/Adam_1/Assign"
  input: "^inverted_bottleneck3_6_0/Conv_1/BatchNorm/beta/Adam/Assign"
  input: "^inverted_bottleneck3_6_0/Conv_1/BatchNorm/beta/Adam_1/Assign"
  input: "^conv_fused_Decoder43/weights/Adam/Assign"
  input: "^conv_fused_Decoder43/weights/Adam_1/Assign"
  input: "^conv_fused_Decoder43/biases/Adam/Assign"
  input: "^conv_fused_Decoder43/biases/Adam_1/Assign"
  input: "^Decoder44/weights/Adam/Assign"
  input: "^Decoder44/weights/Adam_1/Assign"
  input: "^Decoder44/biases/Adam/Assign"
  input: "^Decoder44/biases/Adam_1/Assign"
  input: "^Final_decoder/weights/Adam/Assign"
  input: "^Final_decoder/weights/Adam_1/Assign"
  input: "^Final_decoder/biases/Adam/Assign"
  input: "^Final_decoder/biases/Adam_1/Assign"
}
node {
  name: "init_1"
  op: "NoOp"
}
node {
  name: "init_all_tables"
  op: "NoOp"
}
node {
  name: "group_deps"
  op: "NoOp"
  input: "^init_1"
  input: "^init_all_tables"
}
node {
  name: "Merge_1/MergeSummary"
  op: "MergeSummary"
  input: "total_loss"
  input: "accuracy"
  attr {
    key: "N"
    value {
      i: 2
    }
  }
  attr {
    key: "_output_shapes"
    value {
      list {
        shape {
        }
      }
    }
  }
}
versions {
  producer: 24
}
